AutogluonModels/ag_custom/models/DeepAR/W0/gluon_ts/prediction-net-state.pt (torch, 118112 bytes, 11 tensors)

model.param_proj.proj.0.weight f4 [1, 40]
000000 ef e9 ea bb 93 5a 2f 3d 25 a8 dd bd 7d 81 0e 3e
       -0.0071690003 0.042810988 -0.10823087 0.13916583
000010 d4 e0 b9 bd 7f 73 49 3d 30 cd 41 be 33 97 2a be
       -0.09076086 0.04918241 -0.18925929 -0.1665924
000020 f8 73 86 bd 78 d6 2b 3c 51 29 01 be 36 8f 88 bc
       -0.06565088 0.010488145 -0.12613417 -0.01666985
000030 32 49 2b be 62 62 a8 bd 06 01 b2 bd 61 c3 8d bd
       -0.1672714 -0.0822189 -0.086916015 -0.06922031
000040 62 d4 35 be 8e fe 35 3e cc 4e 87 bd 34 c3 7d 3d
       -0.17756799 0.17772886 -0.06606826 0.06195374
000050 1b ba 3d 3d ba f6 be 3d 7d f0 cc 3d 18 e0 5b 3e
       0.046320062 0.09324403 0.10006807 0.21472204
000060 d9 2d 0a be e0 77 ec bc c2 0f 16 be da 76 29 3e
       -0.13494052 -0.028865755 -0.14654449 0.16549245
000070 f4 34 80 3d e7 87 36 be cc 3e b8 3d 96 46 f6 3d
       0.062601 -0.1782528 0.089963526 0.12025182
000080 bc be 08 3e 90 56 a9 3c b3 ca 48 3e 3e 70 a2 bd
       0.1335401 0.020671159 0.19608574 -0.07931565
000090 7a 77 e8 bd 32 1d dd bd 90 1d 27 be e2 ab 8a 3d
       -0.11350913 -0.10796584 -0.16319871 0.06771065

model.param_proj.proj.1.weight f4 [1, 40]
000000 55 78 a8 bd 49 f4 49 bd 68 58 3a 3e e7 bb fe bc
       -0.082260765 -0.049305234 0.18197787 -0.031095458
000010 23 ca a0 ba 4e 56 a0 3a 58 84 29 3d 53 6d 00 3e
       -0.0012267273 0.0012232752 0.04138598 0.12541704
000020 bc 47 fd 3d 48 ee 37 3d b2 72 88 3d 89 14 84 3d
       0.12367198 0.044904977 0.066625014 0.06449229
000030 60 90 c0 3d 3d 32 0f 39 00 84 29 be da 10 9e bd
       0.09402537 0.00013656258 -0.1655426 -0.07718058
000040 73 1e 0e 3e e3 aa 20 3b 58 ee 19 be e7 db 5f 3d
       0.13878803 0.002451592 -0.15032327 0.054653075
000050 20 94 10 3e 17 27 36 be 59 49 1e be 94 e4 c1 bd
       0.14119005 -0.17788349 -0.15457667 -0.09467426
000060 77 fd 99 3d a9 b7 1e bc f4 05 ad b9 e8 1d 44 be
       0.07519048 -0.009687343 -0.00033001567 -0.19152033
000070 47 38 d4 3d 3d 4f 30 3e fc 5b a7 3d 22 9f 14 be
       0.103622966 0.17217727 0.081718415 -0.1451383
000080 fa 82 26 be bc f4 76 3d 17 df d2 bc cf 97 c3 3d
       -0.16260901 0.06029199 -0.025741143 0.095504396
000090 a7 1c 2e be 96 90 b9 3c f5 ef af 3d ab 96 77 3d
       -0.17003118 0.022651952 0.0859069 0.060446423

model.param_proj.proj.2.weight f4 [1, 40]
000000 e2 f4 50 bd af 2b 9a 3d da 27 2f be 1e 98 13 be
       -0.05101479 0.07527863 -0.17105046 -0.14413497
000010 82 1b 2c be 5c 5c 59 3e 21 c5 2a 3e 28 b1 0f 3e
       -0.16807368 0.21226639 0.16676761 0.14032423
000020 da 93 35 be aa b5 48 3e a3 91 0b 3e 04 0a 3c 3e
       -0.17732182 0.1960055 0.13629775 0.18363196
000030 7e d0 17 be 04 15 56 bd a9 33 63 3e 9c 13 0b 3e
       -0.14825627 -0.052266136 0.22187676 0.13581699
000040 8f 28 58 3e 0a a1 fa bd 1e 4f 51 3e b8 25 34 be
       0.21109222 -0.12237747 0.20440337 -0.17592514
000050 f3 78 c6 3d c3 d8 2f be 83 2e 66 bd 33 45 05 be
       0.09691038 -0.17172532 -0.0561967 -0.13014679
000060 58 e6 74 3d 66 12 5e 3e a7 f5 25 3e 29 65 8b bd
       0.059789985 0.21686706 0.1620699 -0.06806404
000070 d7 1c 4d 3e a2 77 2a be 5f 6b 28 3e 55 6e 99 3d
       0.20030533 -0.16647199 0.16447209 0.07491747
000080 ad 93 dd bd d9 5a cb 3d ba 68 57 be a7 33 d1 3d
       -0.108191825 0.09929437 -0.21036044 0.1021493
000090 4e 6e 0a 3e 02 da 62 3e 36 10 d8 3c 19 7d 0d bd
       0.1351864 0.22153476 0.026374917 -0.03454313

model.rnn.weight_ih_l0 f4 [160, 51]
000000 53 e6 b7 3d a0 79 91 3d 85 77 1b 3e d4 33 18 bd
       0.08979478 0.07103276 0.15182312 -0.037158802
000010 3f 64 8b 3d 85 64 e7 3c a4 59 b7 bd 6a 03 cd bb
       0.0680623 0.028246174 -0.089526445 -0.0062565105
000020 d6 7b 98 bd 5d f1 ce 3d e1 32 45 3d 20 4a 51 3d
       -0.07445495 0.1010463 0.048144225 0.05109608
000030 20 7d 32 bc fc d8 19 3d b5 4b 8e bc b3 83 98 3d
       -0.01089409 0.037560448 -0.017370084 0.07446995
000040 b6 5f 39 3e 30 79 42 3d c5 89 41 bd 18 2c 96 bd
       0.18102917 0.047478855 -0.047250528 -0.07332629
000050 37 36 1e 3d 77 ff b8 bd df 28 bc bd cd a1 a2 bd
       0.038625922 -0.09033101 -0.09187483 -0.07941017
000060 77 93 f4 bc d6 be 11 3d f1 e4 08 3e 54 32 af 3d
       -0.029855473 0.035582386 0.13368584 0.08554521
000070 54 28 15 3e 92 f0 a3 bd c3 54 05 3d 5d 5b f9 bd
       0.14566165 -0.080048695 0.03255154 -0.12175629
000080 90 bd f0 3d 82 a4 6b 3d 6b c8 34 3e 5f 34 21 be
       0.11754906 0.057529934 0.17654578 -0.15742634
000090 8b 6b ed 3d c5 2d 33 3e ff 79 a7 3d e3 de b6 3b
       0.11592778 0.17497928 0.08177566 0.0055807694
0000a0 67 b6 2e 3e 8d dd 86 3d 5d d0 95 3d 47 0a 06 3d
       0.17061768 0.06585226 0.07315133 0.032724645
0000b0 55 6d 06 be d5 93 1e 3c 07 e2 a0 3d 05 c1 1e be
       -0.13127644 0.009678801 0.07855611 -0.15503319
0000c0 f5 b6 c6 bd 03 0d 0e be 25 82 29 bd 8d a1 28 3e
       -0.09702865 -0.13872151 -0.04138388 0.16467877
0000d0 e1 63 5e 3d dd 8c 91 3c 41 4a 0b 3d e7 dc 01 3e
       0.05429447 0.017767364 0.03400636 0.12681924
0000e0 2c 09 dc bd 8a 17 b5 bd 36 64 99 bc bf 96 6d bd
       -0.10743937 -0.0884238 -0.018724542 -0.05800509
0000f0 62 9c ea 3d 54 1e 14 3e 3b 36 f6 bd db f0 cc bd
       0.11455609 0.14464694 -0.120220624 -0.10006877
000100 7a 81 f4 bd 50 01 9a 3d 4b 4f 13 3e 58 ef de bd
       -0.11938758 0.075197816 0.14385717 -0.10885495
000110 9f 17 2d bd aa 98 ac 3d 26 af 87 bd f4 29 1a 3e
       -0.042258855 0.08427556 -0.06625204 0.15055066
000120 1d 63 61 3d f8 b0 c2 bc c1 c6 61 3d e9 6c d7 3d
       0.055026162 -0.023766026 0.055121187 0.1051882
000130 21 d7 91 3a 02 a0 83 bd 2d 70 7e 3d de c6 88 3d
       0.0011126735 -0.064270034 0.062118698 0.06678556
000140 5c 34 4f 3d 28 e2 0e 3d 0f 28 26 3e 06 ed a3 bc
       0.050587043 0.03488365 0.16226219 -0.020010483
000150 9f 52 ba 3c ae d4 dd 3d ce cf 11 be a9 69 1d 3d
       0.022744475 0.10831581 -0.14239427 0.038430844
000160 de 67 75 3b 34 7c 09 3d ec e8 7a bd 01 2d 86 bc
       0.0037445943 0.033565715 -0.061257288 -0.016378881
000170 b5 c4 82 bc 9e 6f 29 be 50 f2 9b bd a4 02 4d 3d
       -0.015962938 -0.16546485 -0.07614577 0.050051346
000180 6a 11 09 bd 35 9a 98 3d 6d 02 12 be 9e 3c e2 bd
       -0.033463873 0.07451288 -0.14258738 -0.11046718
000190 65 e1 28 be 50 4b ee 3c 0a 86 a7 bc 9e 13 45 bd
       -0.16492231 0.029088646 -0.020449657 -0.04811441
0001a0 26 ba c2 bc 84 a4 d1 bd 09 e1 a1 3d ee 58 2a 3d
       -0.023770403 -0.10236457 0.0790425 0.041588716
0001b0 8c 78 99 bd 07 4e b1 3d 48 cd 7b 3c 8b 65 0e be
       -0.074936956 0.08657461 0.015368767 -0.13905923
0001c0 4d 5d c0 3d 63 e2 c2 3d c1 ac 7d bc 99 1a b8 bd
       0.09392796 0.09515836 -0.015483082 -0.08989448
0001d0 9a ad 54 3d 94 6d 30 3e 9e 49 43 3e c5 9e 07 be
       0.05192337 0.172293 0.19071051 -0.1324416
0001e0 3d 0a b0 bd 27 cf e2 3d 78 9f c5 3d 1e 65 f9 3d
       -0.08595703 0.110746674 0.09649557 0.1217749
0001f0 3a 64 5b bd 70 01 eb 3d e9 3f 20 be f3 0d 19 bd
       -0.05356238 0.114748836 -0.1564938 -0.03736682
000200 f6 c8 13 3d 6e f6 44 3d e3 de 98 bd 0f 3e 06 3e
       0.036080323 0.048086576 -0.07464387 0.13109611
000210 bb aa 0c 3e 8d 46 02 be 76 21 16 bc b7 8b e3 bd
       0.13737004 -0.12722225 -0.009163251 -0.11110633
000220 c9 17 eb 3d ad 54 9e 3d f8 df ad 3d 49 cd 81 3d
       0.11479146 0.077309944 0.08489984 0.06337983
000230 31 e4 b1 bc 98 37 cd 3d 44 ec 2f bd cb b9 70 bd
       -0.021715255 0.10020369 -0.04294993 -0.058770936
000240 93 26 96 3d 0f 38 70 3d c6 96 93 bd 13 bc c2 bd
       0.07331576 0.05864721 -0.07206492 -0.095085286
000250 12 9f ff bd 48 64 a3 bd 25 e5 28 bd 6d ff 95 bd
       -0.12481512 -0.079781115 -0.041234154 -0.07324109
000260 e8 a4 04 be d2 1a 47 3e 08 a8 98 bd a1 bd 5b 3e
       -0.12953532 0.19443825 -0.074539244 0.21459056
000270 ba a2 24 bd 9f c7 83 3c 20 2f 1b 3e 82 e3 91 3d
       -0.04019425 0.016086398 0.15154696 0.07123472
000280 fd c5 f0 bc 6f 26 e7 bd 58 27 9f bd 00 01 eb 3d
       -0.029391283 -0.112866275 -0.07771176 0.114748
000290 aa fa 95 bd 6f e5 f3 3d d6 1d 37 bd 28 b2 07 bd
       -0.07323201 0.11908995 -0.04470619 -0.033128887
0002a0 42 8a 8b 3d 15 7e 5b bc 29 6e 95 bc 81 b3 d1 3d
       0.0681348 -0.0133967595 -0.018241005 0.10239316
0002b0 6b 43 2c 3d b7 25 33 bd fd 86 39 3c 60 b2 b9 3d
       0.042056482 -0.04373714 0.011323688 0.090672255
0002c0 62 a0 5d 3d ac 26 1e bd 7d 1f 52 3d 84 65 15 bc
       0.05410803 -0.0386111 0.05129956 -0.0091184415
0002d0 e6 e0 fd bd 36 29 8a bd ab 4a 0b 3e 4b 1b 5d 3d
       -0.123964116 -0.067461416 0.13602702 0.053981107
0002e0 6e 55 98 3d df 6b 5b bd 0b 9c 45 3e ff 84 0d bd
       0.074381694 -0.05356967 0.19297807 -0.034550663
0002f0 4a af de 3c 91 13 90 bd df 53 8c bd f5 4d 82 3d
       0.027183194 -0.07034982 -0.06851935 0.063625254
000300 8a 89 0e bd 51 23 d7 bd 6b b6 ce bd d2 3f da 3d
       -0.034799136 -0.10504783 -0.10093387 0.10656704
000310 77 f4 d0 3d 3d 58 e3 3d b8 31 07 be 4b 05 a3 3d
       0.10202878 0.111008145 -0.1320256 0.07959994
000320 17 69 3f 3d de dc 09 be 33 f1 ec bc 1d e0 1f bb
       0.04673108 -0.1346316 -0.028923607 -0.0024395057
000330 37 69 c7 bc 85 d0 13 bc 25 89 3b 3e 21 d1 11 3d
       -0.024342163 -0.009021883 0.18314035 0.03559983
000340 12 c3 21 3d dc 75 84 bd 78 3c 88 bd 58 e9 25 3e
       0.039492674 -0.064677924 -0.066521585 0.16202295
000350 f1 a0 95 3d a8 b5 51 bc 9f 90 d3 3d 42 25 91 bd
       0.07306088 -0.012799658 0.10330319 -0.070871845
000360 c2 e8 11 be ae fc 35 be 1f bb 03 3e c3 41 16 bb
       -0.14248946 -0.17772171 0.1286435 -0.002292738
000370 fd b0 12 3e 9f f1 3a 3e 4f 8e bc 3d 54 5e 23 3e
       0.14325328 0.18256234 0.09206831 0.15953952
000380 29 9c 53 bc 24 2b 09 3e ca 68 c4 bd 6b 12 ca bb
       -0.012915649 0.13395363 -0.095902994 -0.0061667464
000390 c1 74 df 3d 01 73 b3 bd c2 97 fb 3d 73 50 b2 3c
       0.10910941 -0.0876217 0.12284805 0.021766877
0003a0 4c ae df bc 89 2b 21 3e 43 df f1 3d 8f 32 a0 bd
       -0.02730479 0.15739264 0.11810162 -0.07822143
0003b0 cd 88 8b 3d 23 d9 52 3d 41 10 0b 3e 7c a2 d6 3d
       0.06813202 0.05147661 0.13580419 0.1048021
0003c0 f8 be ef 3d 88 55 9d 3d 32 0f f0 bd 8e d6 89 3d
       0.11706346 0.076823294 -0.11721648 0.06730376
0003d0 38 1a 9c bc d3 02 03 3e fc ed e1 3d 97 63 e2 bd
       -0.01905547 0.12794046 0.1103172 -0.110541515
0003e0 d7 f7 8e bc d4 ea c3 bc a4 d7 b3 3d 6e 26 2c be
       -0.017452164 -0.023915686 0.087813646 -0.16811535
0003f0 fe b7 58 3d 31 c1 fa 3d 9e 8f 05 3e ac 59 f8 3d
       0.052909844 0.122438796 0.13043067 0.121264786

model.rnn.weight_hh_l0 f4 [160, 40]
000000 f5 b9 f7 bd 75 10 09 3e 69 de c0 3d 09 d0 ad 3c
       -0.12096015 0.13385184 0.09417421 0.021217363
000010 c8 97 78 bd 60 76 06 3e 84 5d 0b bd 31 82 07 3d
       -0.060691625 0.13131094 -0.03402473 0.033083145
000020 77 a1 fe 3d 54 11 72 3d c1 bc 1f 3e 83 7f 3b be
       0.12433141 0.059098557 0.15599348 -0.1831036
000030 83 2f 1d 3c ba b0 cc 3d 79 58 23 bd 42 fc a0 3d
       0.009593847 0.099946454 -0.039879296 0.07860614
000040 02 b7 c7 bc e5 50 f5 bd ef 9a 28 be 0e 35 04 be
       -0.024379257 -0.1197832 -0.16465352 -0.12910864
000050 56 e8 e0 bd 47 4a ca 3d d2 7c ac bd d7 67 16 be
       -0.109818146 0.098774485 -0.08422245 -0.1468805
000060 4d 7b e7 bd a0 97 1d 3e 36 2b ba bd 7c a5 64 3d
       -0.11302815 0.15389872 -0.09090273 0.05582188
000070 b5 eb 98 3c 5a 93 1f 3d 89 36 06 be 1c 8e ab bd
       0.018667081 0.038958885 -0.13106741 -0.083767146
000080 23 2c 44 be a6 09 86 3d 04 93 c7 bd 46 a4 e6 bc
       -0.19157462 0.06544809 -0.09744838 -0.028154504
000090 4f 02 c9 3d 50 40 85 bc 68 a5 52 bd d0 4d 63 3d
       0.098148935 -0.016266018 -0.051427275 0.05549413
0000a0 a8 7f c9 3d e7 90 9c bd 14 66 7b 3d e1 74 65 bd
       0.098388016 -0.076448254 0.061376646 -0.056019668
0000b0 50 2e 59 3e fa f6 f8 3b b2 59 01 3e e9 3c 96 bd
       0.21209073 0.0075978013 0.12631872 -0.073358364
0000c0 02 00 03 3e d8 60 d0 bd 31 46 bf 3d 99 26 87 bc
       0.12792972 -0.101747215 0.0933956 -0.016497897
0000d0 b3 8c 20 be 16 45 73 3d 1e 79 9e 3d 50 1a 1d bb
       -0.15678672 0.059392057 0.07737945 -0.0023971982
0000e0 6e a1 cd bd 2e d4 1f bd 48 45 2f 3d 3a e0 4b be
       -0.10040556 -0.03902071 0.04279068 -0.19909754
0000f0 68 f0 a2 38 f5 f0 b0 3b 21 52 bb 3d f3 d0 fb 3d
       7.769541e-05 0.005399818 0.09146524 0.12295713
000100 54 4e ad 3d 09 16 1b 3d fc 4f 28 3e 68 20 32 3e
       0.084622055 0.03786281 0.16436762 0.17395175
000110 56 70 24 3e 59 3b 67 bd b4 06 e6 3d c3 9c d4 3d
       0.16058478 -0.056453083 0.11231747 0.103814624
000120 fa e7 2c bd 66 8a f7 3d 47 92 47 3d a6 e3 d7 3d
       -0.042213418 0.12086944 0.048723485 0.10541467
000130 08 90 0c 3e 91 fc 65 3c 0d 66 02 be 21 c0 09 3e
       0.13726819 0.014037267 -0.12734242 0.13452198
000140 8a f9 cd bd d5 7c 0d be e6 57 84 bd 35 09 c5 3d
       -0.100573614 -0.13817151 -0.06462078 0.09620897
000150 d1 f8 72 3d 49 57 c8 bd a0 3f 09 3d 98 54 1a bd
       0.05931932 -0.09782273 0.033507943 -0.03767833
000160 96 8e 91 bd ac 4c d4 b9 96 5d 84 bb e4 a3 47 bd
       -0.07107274 -0.00040492916 -0.0040394766 -0.048740283
000170 77 7e fc bd 25 d5 f7 3d 7f 23 0d bd 19 3d ea bd
       -0.12328809 0.12101201 -0.03445768 -0.11437435
000180 7e da 0d 3e b8 c8 12 bc 59 22 8c bd 19 bc 05 3d
       0.1385288 -0.008958988 -0.06842489 0.032650087
000190 10 11 77 3d 24 71 dd 3d 31 ad 2f 3d ba 2e 01 3e
       0.060319006 0.108125955 0.042889778 0.12615481
0001a0 50 b0 bd 3d fd 27 52 bd d7 fb ce 3d ba 58 b4 bd
       0.092621446 -0.051307667 0.101066284 -0.08805986
0001b0 ea 6e 14 3d c1 da d9 3d f5 08 f7 3d f9 45 b2 3d
       0.03623859 0.10637427 0.12062255 0.087047525
0001c0 38 37 80 3d 6e c5 5d 3e c0 8b d7 bd de e2 02 3e
       0.06260532 0.21657345 -0.10524702 0.12781855
0001d0 d0 ed 79 bd de 8d f6 bd e6 94 0d 3d 22 24 c2 3c
       -0.06101781 -0.12038778 0.03456583 0.02369887
0001e0 5a 3f 14 bc b4 c7 d8 3c 78 ab bf 3d 73 70 16 3d
       -0.009048307 0.026462413 0.09358877 0.036728334
0001f0 3e d1 8b bd 98 4d e1 bd e3 a3 d8 bb 24 54 d4 bc
       -0.06827019 -0.11001128 -0.0066113337 -0.025919028
000200 de 19 c7 3c 1c 79 6a bd 76 55 10 3e c0 e7 01 3e
       0.024304327 -0.057244405 0.14095101 0.12686062
000210 fd 81 9d 3d 11 35 57 bd da 7e 22 3e f2 4b 49 3d
       0.07690809 -0.052540842 0.15868703 0.049144693
000220 5b 4e 01 3e b4 c3 c4 3c 0f e6 8b bd fe b5 fe bd
       0.12627546 0.0240191 -0.068309896 -0.12437056
000230 25 ce 67 3d 5e ca 0d 3d 6d d5 ef bd 6e 0a 44 3d
       0.05659308 0.03461682 -0.117106296 0.04786151
000240 08 dd 73 3d 35 22 0b 3e 39 f5 7c bd 57 85 77 3d
       0.059536964 0.13587268 -0.0617573 0.060429897
000250 b8 33 05 be 23 2d 6a bc fa 4f 08 3e d1 48 3e bd
       -0.1300801 -0.014292988 0.13311759 -0.046456162
000260 1a 9d 36 3d 86 be 28 3c a3 f9 ca bd ba 92 1b bd
       0.044583417 0.010299331 -0.09910896 -0.037981726
000270 9a 17 81 3d a8 6f 18 3d 95 fb 15 3e 08 43 ef 3c
       0.0630333 0.03721586 0.14646752 0.029206768
000280 70 4d 2a be d0 96 f1 3d 0d c4 f4 3c ca b3 e6 bd
       -0.16631103 0.11796343 0.02987864 -0.11264761
000290 57 2c e9 3d 70 8b c2 3d 2f 2b 16 be 4b 3e c3 3c
       0.1138541 0.09499252 -0.1466491 0.023833415
0002a0 a2 6f cd bd 3a b3 3c bd 87 79 e1 3c 47 16 d9 3d
       -0.10031058 -0.04606936 0.027523769 0.10599952
0002b0 ff 5f a6 3d a3 a2 bd bd 8c d3 b7 3d 52 e5 13 bc
       0.081237786 -0.09259536 0.08975896 -0.009026842
0002c0 f8 ff a3 3d 50 b7 d3 3c 6b b9 36 3c fa c2 13 bd
       0.080078065 0.025844246 0.0111526055 -0.036074616
0002d0 f3 68 a1 3d a1 be 20 be 60 a9 a7 bd 1d bb 93 bb
       0.078813456 -0.15697719 -0.081866026 -0.0045083896
0002e0 2c f9 20 3e bc 68 9a bd f0 c1 61 bd 36 cf 27 bd
       0.15720052 -0.07539508 -0.055116594 -0.040969096
0002f0 8f 88 3c be f2 e3 a7 3c 51 80 0b 3e 76 7d 3c bd
       -0.18411468 0.020494435 0.13623168 -0.046018086
000300 c6 58 16 3d 55 19 ca bc c5 74 84 3d 24 04 21 be
       0.036705755 -0.024670282 0.064675845 -0.15724236
000310 af f7 38 3e c0 4a b6 3d ff 33 bc bd 56 74 0a be
       0.18063234 0.08900976 -0.09189605 -0.13520941
000320 bd 6f 4f be 07 25 34 be f5 7b 55 3e 61 58 c1 bd
       -0.20257469 -0.1759225 0.20848067 -0.09440685
000330 db 84 09 3e f1 c0 ff 3d 62 81 d8 3d 1e 9f 16 3e
       0.13429587 0.124879725 0.10571553 0.14709136
000340 f2 2a 61 3e af c6 8b 3a 03 d9 52 3e 85 60 77 3c
       0.21989039 0.0010664071 0.20590596 0.015098696
000350 13 3d e9 3d 19 48 7e bd 17 eb 4e 3d bc 2e 07 be
       0.11388602 -0.062080476 0.050517168 -0.13201421
000360 c6 a0 a6 bd 8a 89 71 bd a7 58 9c 3d 85 20 73 bd
       -0.08136134 -0.058969058 0.076340966 -0.059357185
000370 2e d1 a7 3d f8 28 30 3e 8a db c8 3d 06 8b 3a 3d
       0.08194195 0.17203128 0.09807499 0.04554274
000380 34 53 a0 bd 04 4a 25 3c 9f 89 12 3e 50 53 b5 3d
       -0.0782837 0.0100884475 0.14310311 0.08853781
000390 2a 54 e7 bc f4 bc 66 bd 58 e8 8c 3d b9 04 ac 3d
       -0.028238375 -0.056332543 0.068802536 0.08399338
0003a0 94 0d 33 3d 94 48 e9 3d 76 e1 7e 3d 24 a0 e5 3d
       0.04371412 0.11390796 0.062226735 0.11212185
0003b0 72 49 84 3d 89 19 71 3a 74 56 5e 3e 52 81 af 3c
       0.06459321 0.00091972254 0.21712667 0.02142397
0003c0 ce ff 25 be a5 62 04 bd c6 7a be bd 65 c6 b7 bd
       -0.16210863 -0.032320637 -0.09300761 -0.08973388
0003d0 7b f3 ed 3d 30 f1 32 be 47 16 4f be 00 34 3c 3e
       0.11618706 -0.17474818 -0.20223342 0.18379211
0003e0 5d 5c f8 bc 43 b9 f1 bd 4e 66 b8 3d 96 bc 47 be
       -0.03031748 -0.11802914 0.09003888 -0.19505534
0003f0 0c ff b2 3d 86 90 13 3e 09 1d 1f be e9 e2 b5 bd
       0.087400526 0.144106 -0.1553842 -0.0888117

model.rnn.bias_ih_l0 f4 [160]
000000 1a 33 dd 3d da fb f5 3d 69 95 ab bc c0 01 d5 bd
       0.108007625 0.120109275 -0.020945268 -0.104007244
000010 54 24 e5 bd 43 ce 73 3d 3b c0 e6 3d 98 94 0b 3e
       -0.1118857 0.05952288 0.11267134 0.13630903
000020 1c 48 0a bd 4c 2a 9c 3d b1 69 3d bd c3 33 9f 3d
       -0.033760175 0.07625255 -0.046243373 0.07773545
000030 86 e6 c0 bc ae cd 95 3d 20 84 d0 3d 34 17 97 bc
       -0.023547422 0.07314621 0.10181451 -0.018443681
000040 3a f3 d4 3d fa 90 f7 3c da 5d dd bd d8 20 31 3e
       0.10397954 0.030220497 -0.108089164 0.17297685
000050 8f 16 b3 bd 55 fc 3b 3e 17 11 7c 3d 55 00 08 bd
       -0.08744537 0.18357976 0.061539736 -0.03320344
000060 22 29 a0 3c bd b7 23 3d 75 50 0f be 16 74 a8 bd
       0.019550864 0.03997015 -0.13995536 -0.08225267
000070 a6 d4 4a bd 48 33 02 bd 6c 06 10 3e ea 9b 45 3c
       -0.049519204 -0.031787187 0.1406495 0.012061099
000080 d5 5e b3 3d bc 62 17 3e 61 f1 0a 3c 7f 27 4b 3e
       0.08758322 0.14783758 0.008480401 0.19839285
000090 84 d5 4a 3e 0a 9b 48 3d 62 e9 ec 3c fd dd 9c 3d
       0.19808012 0.04897598 0.02891988 0.076595284
0000a0 7e 17 ae 3d 5d 23 a3 3d 94 4d c8 bd 57 1a ef bd
       0.085005745 0.079657294 -0.09780422 -0.11674946
0000b0 31 92 74 bc 65 de e2 bd cb 71 ca 3d 70 55 f7 bd
       -0.014927433 -0.11077575 0.098849855 -0.12076843
0000c0 8e 1a 1d 3e 23 bd 38 bd 17 c2 da 3d 5c 0b 4a 3e
       0.15342161 -0.04510225 0.10681551 0.19730896
0000d0 e0 8e 76 3c 8c 2b 12 bd 34 05 c9 bd 55 34 5f 3d
       0.0150487125 -0.03568606 -0.098154455 0.054493267
0000e0 31 ad a0 bd 52 9f 1f be b1 02 dc 3d 85 7e 0b 3e
       -0.07845534 -0.1558812 0.10742701 0.13622482
0000f0 0d a2 c4 3c 52 6d f8 3d db 67 7c bd 5c 0b a3 bd
       0.024003053 0.12130226 -0.06162248 -0.07961151
000100 a8 04 88 bd d1 c2 cc bd 7f d4 ea 3b f1 9f 3c bd
       -0.06641513 -0.09998096 0.007166445 -0.04605097
000110 03 8b 2b 3e be 87 95 3d 22 e2 e1 3d 47 8a 07 3e
       0.16752248 0.073012814 0.110294595 0.13236342
000120 05 e6 bb 3c 90 56 19 bc 5b 47 ec 3d 84 8c 04 3e
       0.02293683 -0.009359017 0.115370475 0.12944227
000130 f0 89 1d 3d c0 0f d5 bc a5 a1 cf bd b2 55 01 3e
       0.038461626 -0.026008487 -0.10138253 0.12630346
000140 31 6e 54 bd 35 ae 68 3b 2c 9b e5 bd f9 28 ff bc
       -0.0518629 0.0035504226 -0.11211237 -0.031147467
000150 26 a3 71 3d dc aa 44 be 37 2e 30 bc 21 30 95 3d
       0.05899348 -0.19205803 -0.010753206 0.072845705
000160 9a 6b 14 bd 14 f1 32 3c 6b 88 8c 3d 60 14 b3 bd
       -0.03623543 0.010921735 0.06861957 -0.087441206
000170 14 23 2d be 16 12 36 be 97 9a 31 3d 47 77 52 3d
       -0.16907912 -0.17780337 0.04336032 0.051383283
000180 cc e6 68 3d 6f 30 64 ba 05 1a f1 3d 1b 76 3c be
       0.05686073 -0.0008704727 0.11772541 -0.18404429
000190 1a 78 a3 bd 97 db 02 be 8a 1a 6a 3d c4 e3 f3 bd
       -0.07981892 -0.1277908 0.057154216 -0.11908677
0001a0 73 9b 1b bd fb 32 99 3d f3 0d 24 3d c4 4a 36 3e
       -0.037990045 0.07480427 0.040052366 0.17801958
0001b0 75 3c 05 bc e8 b5 c7 3d 09 6b f7 bd fb 20 a5 3d
       -0.00813209 0.09751493 -0.12080962 0.08062931
0001c0 c8 0b f5 bd 62 07 d6 3d 76 82 1b bd 39 7f 10 3e
       -0.11965138 0.10450627 -0.037966214 0.14111032
0001d0 42 ae 65 bd 99 94 d6 bd 8d e9 2f 3e fb aa 9e bd
       -0.05607439 -0.104775615 0.17178936 -0.07747456
0001e0 bb d0 cf bb 88 08 42 3e 3c b0 9a 3d 9e 87 20 bd
       -0.0063420213 0.18948567 0.07553145 -0.039191835
0001f0 28 b9 b5 bd df 65 e3 3d a8 bf 89 bd 22 d8 b1 bd
       -0.088732064 0.11103415 -0.06726009 -0.08683802
000200 a1 76 7f 3d fb 75 58 bd 17 1c 75 bd 96 8b 07 3e
       0.062368993 -0.05284689 -0.05984124 0.13236842
000210 83 d3 54 3c 4c 15 44 3e 8f 84 65 3d 60 db ed 3d
       0.012989881 0.19148749 0.05603462 0.11614108
000220 ee 75 87 bd 91 fd 1d 3c fa d3 dc 3d 78 35 18 3e
       -0.0661429 0.0096429745 0.10782619 0.14864147
000230 77 6f 90 3b f2 66 d4 bd b8 64 0f 3e a0 9a e7 3d
       0.004407819 -0.10371198 0.14003265 0.11308789
000240 7f a8 25 3e 39 fb 4c 3e 9f 58 78 3d 02 c9 5e 3d
       0.16177557 0.20017709 0.06063139 0.054390915
000250 e0 ef f5 3d 10 6f e9 3d ee 8d 23 3c b9 ab 1f 3e
       0.12008643 0.113981366 0.009982569 0.1559285
000260 40 65 c4 bd 17 b0 8e bc 15 f6 a3 bd 26 71 a9 bd
       -0.095896244 -0.01741795 -0.08005921 -0.082735345
000270 d1 ff ce 3b 01 94 d6 bd d8 b5 a2 bd 2e e3 d6 3d
       0.006317117 -0.10477448 -0.0794484 0.1049255

model.rnn.bias_hh_l0 f4 [160]
000000 3e 3a 44 3e 49 82 8f 3d d4 01 fc bd a8 aa cc 3d
       0.19162843 0.07007272 -0.12305036 0.099934876
000010 ee d3 09 3e 13 21 da 3d a6 bb a2 bd 22 8d a6 bc
       0.13459751 0.1065084 -0.07945947 -0.02033097
000020 a9 d0 06 3e b8 8d 87 bc e4 c5 79 3d 3e 43 36 3e
       0.13165535 -0.016547069 0.06097974 0.17799088
000030 4e b4 eb bb f8 11 d2 3a 93 71 0b 3e 71 67 a6 3b
       -0.007193125 0.0016027084 0.13617544 0.005078249
000040 f9 39 af 3d 5c b6 8f bc e3 ee 34 3d a0 d6 bd bc
       0.08555979 -0.01754301 0.044173133 -0.02317363
000050 9e d6 8b bd 83 83 b7 bd 6d bb c8 3d fc a4 a9 3d
       -0.06828044 -0.08960631 0.09801374 0.082834214
000060 18 1f c5 bd 71 5d 85 bd 36 46 27 3e a0 46 ab bd
       -0.09625071 -0.06511963 0.16335377 -0.0836308
000070 f3 cd 1e 3e 25 2f 90 bd f3 ff 56 3d 30 1b 34 3d
       0.15508251 -0.07040242 0.052490186 0.04397124
000080 8d 2d b3 3d d4 cc ea 3d 46 57 e9 3d 78 f0 17 3e
       0.087489225 0.11464849 0.11393599 0.14837825
000090 df 1b 09 bc 06 77 3d 3e 68 88 28 3d 63 0f d8 3d
       -0.008368461 0.18502435 0.041145712 0.1054981
0000a0 4d c9 ba ba 81 32 b4 3d af 49 19 3e ba 75 30 3d
       -0.0014250666 0.08798695 0.14969514 0.043081023
0000b0 1c 30 e0 bd f1 4c e0 bd 22 aa a5 bd 5e 30 b3 bd
       -0.10946676 -0.109521754 -0.08089091 -0.0874946
0000c0 a9 85 bc 3d 25 c1 08 be e4 3f d8 3d 55 11 10 3e
       0.09205181 -0.13354929 0.10559061 0.14069112
0000d0 4a 12 ca bd 47 74 88 3c b2 e7 b2 3d ca ae ec 3d
       -0.098667696 0.016657008 0.087355986 0.11556776
0000e0 18 ea 22 bd 51 7f 37 be 97 58 a2 bd 49 0c d6 3c
       -0.03977403 -0.17919661 -0.079270534 0.026128905
0000f0 d6 e3 a6 bd 91 36 c9 3c c2 75 1f 3e 37 f7 2e 3a
       -0.08148925 0.024562152 0.15572265 0.0006674411
000100 f4 1c cc bd e8 eb 6c 3d 9a 0a 9e bd fa 48 8c 3c
       -0.0996646 0.057842165 -0.07716866 0.017124642
000110 24 17 f5 bd 1f 5d 5a bc 27 ea f0 bc f7 94 ad bd
       -0.11967304 -0.013327866 -0.029408528 -0.084756784
000120 46 be 10 be 84 6d bb bd a9 b2 05 3e 99 bb c9 bd
       -0.14135084 -0.09151748 0.13056435 -0.098502345
000130 63 b3 cc bd b2 f1 84 3c 40 36 2b bd 77 d1 81 bd
       -0.09995153 0.01622853 -0.041799784 -0.063387804
000140 c0 d5 bb 3d 95 2e e8 3d 70 19 91 3d 5e 49 a4 3d
       0.09171629 0.1133701 0.0708493 0.08021806
000150 8b 55 81 3d eb dd 4b 3b b2 01 2d be a9 67 90 3d
       0.06315144 0.0031107615 -0.16895178 0.070510216
000160 d9 3d 16 3e 5a 7c a2 bc 37 bb a2 3d 81 a0 59 3d
       0.1467203 -0.019834686 0.07945865 0.053131584
000170 60 fb 34 bd 0d ee bf bd 9d 69 6a bd 01 a3 24 3d
       -0.044185042 -0.093715765 -0.057229627 0.040194515
000180 ae 90 0d be 0c 01 9f 3d 20 0b b4 bd 52 70 61 3c
       -0.13824722 0.077638716 -0.087911844 0.013759689
000190 68 22 ad bc 6c 80 1a bd 1e 61 32 bd d3 3a 5f ba
       -0.02113457 -0.03772013 -0.04354965 -0.00085155404
0001a0 ac 94 29 bd 73 50 9c 3c 4c 24 52 3d a0 02 36 3d
       -0.04140155 0.01908133 0.051304147 0.044436097
0001b0 a7 b2 9c bc 8b 12 4f bc f8 87 b6 3d 20 3b 44 3d
       -0.019128157 -0.012638698 0.08912653 0.04790795
0001c0 20 b6 4a bd 91 57 df 3d 2d 20 ce bc 3c 0a d2 bd
       -0.049490094 0.10905374 -0.025161827 -0.10255858
0001d0 ba 12 f1 bd e1 b0 c0 bc 37 aa 8c bd 4e 63 34 3d
       -0.1177115 -0.023521842 -0.068684034 0.044040017
0001e0 7e 88 a2 3d 44 22 b4 ba 81 c4 88 bd fd b6 e0 bd
       0.0793619 -0.0013743122 -0.06678105 -0.10972402
0001f0 b9 f6 2c 3d 8f 1e 32 bd fd 75 41 3d 5f 50 c2 bd
       0.04222748 -0.043486174 0.047231663 -0.09487986
000200 2c 40 17 3e 55 3d 11 be 5a 27 8c 3d 45 23 d6 bc
       0.14770573 -0.14183553 0.06843443 -0.026139865
000210 65 4e 47 bd 0c 33 3a 3e 82 92 17 bd b3 16 02 3c
       -0.048658747 0.18183535 -0.037004955 0.007939982
000220 7b 29 a5 3d d7 c6 90 3d cd 95 26 3d cb 4e 35 3d
       0.080645524 0.07069176 0.040670205 0.044264596
000230 8a 68 72 bd fe de e0 3d 3f cb 17 3e 76 f4 2c 3e
       -0.059181727 0.109800324 0.14823626 0.1689013
000240 e6 56 89 3d 81 a4 d6 bd 0b 90 62 3d a7 f2 c5 3d
       0.06706028 -0.104805954 0.05531315 0.09665423
000250 2a 7a 39 3e 71 39 f8 3c 8e 25 67 3d ce cd 6b bd
       0.18113008 0.030300828 0.0564323 -0.057569318
000260 d2 06 e2 bd 61 87 0d 3d c4 d8 ec bd 29 4d 10 3e
       -0.11036457 0.034552936 -0.11564782 0.14091934
000270 22 5e 60 3d 56 52 3b 3e 90 15 b7 bd 6b a6 fe bc
       0.054777272 0.18293127 -0.089396596 -0.031085214

model.rnn.weight_ih_l1 f4 [160, 40]
000000 02 01 08 3d a7 30 9b 3d 94 80 e1 3d 52 0d 02 bd
       0.033204086 0.07577639 0.110108525 -0.031750984
000010 71 68 86 bd e8 56 86 3d d6 50 0b be 97 8c de 3c
       -0.06562889 0.06559545 -0.13605055 0.027166648
000020 38 0d 96 bd 1d 6d 49 3e 6a 1f aa bd 96 57 c4 3d
       -0.0732674 0.1967053 -0.08306773 0.09587018
000030 a4 f2 47 bc de a1 75 bd 88 54 06 be 0a d8 99 bd
       -0.012203846 -0.05996882 -0.13118184 -0.07511909
000040 e1 ee 7b 3d 8b 52 2c be 29 d7 d8 bc 72 fb e3 bc
       0.06150711 -0.16828363 -0.026469784 -0.02782986
000050 77 b3 23 3e c8 30 b3 ba fe eb 9b bd 5f 0c 17 bd
       0.15986429 -0.0013671154 -0.07613371 -0.036877032
000060 b9 58 d5 3b 35 14 30 bd 89 0d 87 bd b5 35 3e 3e
       0.0065108207 -0.04298802 -0.065943785 0.18575175
000070 d7 03 51 3d 45 c6 cc bd 2c c2 a1 3d ca 7e 1d 3e
       0.051029053 -0.099987544 0.078983635 0.15380397
000080 70 07 af bd 92 84 16 bc ab 50 2e be 71 d0 b0 bd
       -0.085463405 -0.009186881 -0.1702296 -0.08633507
000090 88 7d 54 3d 21 4a 50 3e c2 ec 07 3e 1e 17 29 be
       0.05187753 0.20340778 0.1327391 -0.16512725
0000a0 9b 8a af 3d 70 f0 0e bd 44 43 82 3d 96 1a dd 3c
       0.08571359 -0.034897268 0.06360486 0.026990216
0000b0 38 8c ce 3d b4 46 c5 39 cb 7a 27 3d c9 5c 26 3e
       0.10085338 0.00037627446 0.04088859 0.16246332
0000c0 24 b1 09 3e 8e db 8e bc c6 cc 9f bd e9 9e cd bd
       0.1344648 -0.017438676 -0.07802729 -0.10040075
0000d0 05 50 2c 3d 67 2b 43 be 8c 1f 8b 3d 1d 50 22 bd
       0.0420685 -0.19059525 0.067931265 -0.039627183
0000e0 17 d6 31 bd 7e 91 8c bd 4f a5 d3 3d 6e 14 e2 3d
       -0.043417063 -0.06863688 0.103342645 0.11039053
0000f0 7d 1c a2 3d 10 3b e2 bd 39 d4 97 bc 88 a8 23 bb
       0.0791559 -0.110464215 -0.018533813 -0.0024972279
000100 ac 34 ce 3d 99 ea 4f bd 46 d4 af bd f1 6c 39 3d
       0.1006864 -0.05076084 -0.0858541 0.04526991
000110 07 53 34 3e 47 c0 11 be 62 e0 0b be ed a0 24 3e
       0.17609797 -0.14233504 -0.13659814 0.16077013
000120 86 d4 fa 3d fc 4a 37 3d e6 28 6e bd 08 e0 24 3d
       0.12247567 0.044749245 -0.058144473 0.040252715
000130 c7 a7 34 3d 28 b1 93 bb 10 72 0a 3e f6 9f 88 3c
       0.044105317 -0.0045072027 0.13520074 0.016677838
000140 b6 41 1a bd 97 b3 c2 bd a6 b6 05 3e 6a 2a ae bc
       -0.037660323 -0.0950691 0.13057956 -0.021260459
000150 5d 73 14 3e 6a 9b e3 bd f5 24 95 3d a9 49 30 3e
       0.14497133 -0.11113627 0.072824396 0.17215599
000160 55 04 67 3d 35 c2 80 3d ab 93 18 3e 68 80 79 bd
       0.056400616 0.06287042 0.14900081 -0.060913473
000170 8f 6b ac 3c 90 10 34 be ef cd 4e bd 60 eb 81 3d
       0.021047382 -0.17584443 -0.050489362 0.06343722
000180 2a 8b 2a 3d ee 24 83 3c 04 30 8e bd b8 2c ee bc
       0.041636623 0.01600882 -0.06942752 -0.029074058
000190 f7 5c bd 3d 90 2a 15 bd 00 74 73 bd 36 7a 30 be
       0.09246247 -0.036417544 -0.059436798 -0.1723412
0001a0 9d c2 cd 3c 82 ff 8c 3c fe ba 21 3e 08 bc 59 3c
       0.025117213 0.01721168 0.15793988 0.013289459
0001b0 69 02 40 3d 25 cb 32 be fc db b2 3d 88 53 16 3d
       0.0468773 -0.17460306 0.08733365 0.036700755
0001c0 19 05 f6 3d 48 6f fc 3d ce ac 23 bc 18 a6 a8 3d
       0.12012691 0.12325913 -0.00998993 0.08234805
0001d0 2e 74 41 3d 7d ab b4 3c 9f c8 72 3d 30 b4 03 bd
       0.04722994 0.022054428 0.05927336 -0.032154262
0001e0 84 aa 07 be 89 02 ce bd a2 33 50 3d 16 56 01 3e
       -0.1324864 -0.10059077 0.05083049 0.12630495
0001f0 02 ca 18 3e 1c fd 04 3e c8 f6 9b 3d 76 eb f5 3d
       0.1492081 0.12987179 0.07615429 0.12007801
000200 53 90 42 bb 6e 16 a1 bb cf ae 9d 3d 38 f0 aa bd
       -0.0029688075 -0.004916004 0.07699358 -0.08346599
000210 36 ba 11 be 36 55 1b 3d b3 57 db 3c f3 5a d1 bd
       -0.1423119 0.03792306 0.026775217 -0.10222425
000220 a1 a1 7a 3d da ea 9b bc ef 42 fb bd 81 36 17 be
       0.061189298 -0.019032884 -0.12268626 -0.14766885
000230 a9 0c 80 3c ba 9e 91 bd 53 97 16 3e 66 ba 6e 3d
       0.015631037 -0.07110353 0.14706163 0.058283232
000240 58 a0 3c be 07 f7 a6 3d a9 fe b9 bd 90 7e d7 3d
       -0.18420541 0.081525855 -0.09081776 0.10522187
000250 56 14 28 3e 1d f8 c8 bd 30 c3 42 3e f1 1e 52 bd
       0.16414008 -0.09812949 0.1901977 -0.05129904
000260 d1 9f c6 bb dd a6 86 bc 2f 55 17 be e5 d6 7f 3b
       -0.006061532 -0.016436988 -0.14778589 0.0039038
000270 52 2f f6 3d 5e ff 46 3e ca fb fb 3d 45 ad 6a bd
       0.120207444 0.19433352 0.12303884 -0.05729415
000280 0e dc e9 3d 55 61 3e bd b2 e2 c1 3c c1 76 19 be
       0.11418925 -0.04647954 0.023667667 -0.14986707
000290 c4 71 98 3d 39 a6 3d bc 22 f1 2b 3d 7f 28 11 be
       0.07443574 -0.011575275 0.04197801 -0.14175604
0002a0 f8 d2 2d bc d0 85 8b 3d 58 3c cc bc 47 ad 2f be
       -0.010609381 0.06812632 -0.024931118 -0.17155944
0002b0 16 1c 12 3e ef 81 78 3d 34 e7 8d bc 91 f4 dc bd
       0.14268526 0.06067079 -0.01732216 -0.10788835
0002c0 52 6e 4b 3c f6 d7 a2 3d 1d a0 dd bd d7 6a 87 3b
       0.012416439 0.079513475 -0.10821555 0.0041326093
0002d0 29 c3 91 3d a5 c6 41 3d 9b 51 97 bd 21 b8 52 bd
       0.07117302 0.047308583 -0.07388612 -0.05144513
0002e0 b9 87 1b be b0 9e e0 bd 62 29 13 be 62 4d 0a be
       -0.15188493 -0.10967767 -0.14371255 -0.13506082
0002f0 90 9b 28 3e 5e 83 2e be c9 0a dd bd a9 4b 70 3d
       0.16465592 -0.170423 -0.10793073 0.058665905
000300 a9 1d 85 bc 44 c4 00 be 61 31 20 be c6 41 a8 3d
       -0.016249495 -0.1257487 -0.15643837 0.0821567
000310 0b 80 e2 3d 8e 15 b5 3d 1f 2c 80 3d 00 52 40 bd
       0.110595785 0.08842002 0.062584154 -0.0469532
000320 06 a8 e8 bd f3 74 3c 3d 81 5c d1 bc 0b 1c 05 3e
       -0.11360173 0.04600997 -0.025556805 0.12998979
000330 ca 69 bf 3c 05 f0 0d bd 57 1b 10 3e 52 c4 0c 3b
       0.023365874 -0.03465273 0.1407293 0.002147932
000340 35 5b 59 b9 11 37 5c 3d 4f 26 eb ba d5 c8 88 3d
       -0.0002072871 0.053763453 -0.0017940494 0.06678931
000350 a8 61 86 3d 1f bf 90 3d 22 8c 13 be 01 ec d8 3c
       0.06561595 0.070677035 -0.14408925 0.026479723
000360 d2 27 1d be b4 3e fa 3d 90 f8 37 bd e1 b7 ee bd
       -0.15347221 0.12218991 -0.044914782 -0.11656166
000370 b3 7b 8e bd dd 8a 9f bd 4f c4 8d 3d 73 e5 e2 3d
       -0.069571875 -0.07790158 0.069222085 0.1107892
000380 2f 3f 01 be 64 e5 23 3e e3 29 06 3d b9 4f 20 bd
       -0.12621759 0.16005474 0.03275479 -0.03913853
000390 19 f1 0e 3e c8 eb 1d be a3 93 ee 3d a1 b5 0b 3e
       0.13959159 -0.15421975 0.11649253 0.13643505
0003a0 c9 a2 08 be e0 9e 3f bc 9b a3 9c bd 1b e0 1c 3e
       -0.13343348 -0.011695594 -0.07648393 0.15319864
0003b0 be 7c 65 bc 88 b6 bd bd 19 90 83 bd 6d d3 e4 3d
       -0.014006792 -0.09263331 -0.06423969 0.11173139
0003c0 0c 71 b1 bb 16 39 8f bd eb fa 0e be de 9c 51 bd
       -0.0054150876 -0.0699331 -0.13962905 -0.05117499
0003d0 f8 a4 d3 bd 00 f6 1d 3e ce 91 5c bd 72 c8 f3 3d
       -0.103342 0.15425873 -0.053849988 0.11903466
0003e0 44 db af bc b8 73 1b 3d a8 d2 0e 3d 28 ab c4 3d
       -0.021466859 0.037952155 0.034868866 0.09602958
0003f0 53 f5 cb bd 13 6d 86 3c 2e 76 3d 3d 4d b1 bd 3d
       -0.09958901 0.016409433 0.046255283 0.09262333

model.rnn.weight_hh_l1 f4 [160, 40]
000000 b6 c1 57 bd 4f a3 14 3c 83 ef df 3d da 73 aa 3d
       -0.05267497 0.009072139 0.10934355 0.08322878
000010 23 89 01 3e 4e ba b5 3d 88 73 63 3d 31 ee 16 bd
       0.1264997 0.088734254 0.0555301 -0.03684825
000020 03 ef d7 bd 43 6d 79 bd 35 6e ba 3d bb fc f2 bd
       -0.10543635 -0.060895216 0.091030516 -0.11864611
000030 74 5d 31 3d 57 14 84 bd 61 93 ab 3d 25 cc 9a bd
       0.043302014 -0.06449192 0.0837772 -0.07558469
000040 cd 7d 06 3e ae 08 11 3e fc e2 16 be 17 63 39 3e
       0.13133927 0.14163467 -0.14735025 0.18104206
000050 38 cf 1b be a6 b0 03 3e 75 7f 2e be a0 b8 a1 bc
       -0.15215766 0.12860355 -0.17040808 -0.019741356
000060 bd 0e 3f 3d 61 12 dc bd e6 47 ed 3d 09 15 bb bd
       0.046644915 -0.10745693 0.11585979 -0.091348715
000070 e6 e8 d0 bd 1a 79 42 3e 24 21 ff bd b8 e1 3a be
       -0.10200672 0.18991509 -0.12457493 -0.18250167
000080 23 7d 8b 3c 5a 28 55 bd e6 9f b3 3d 05 be ca bc
       0.017027443 -0.052040435 0.087707326 -0.024748811
000090 92 97 ca bd 41 c1 05 be f7 da 20 bd 32 fa 14 bd
       -0.09892191 -0.13062002 -0.03927132 -0.036371417
0000a0 58 9b 7a bc 70 00 c0 3d b7 ef 1e 3e c8 c4 db bd
       -0.015295826 0.093750834 0.15521131 -0.107308924
0000b0 0d 56 ab bd fd 78 03 bd e9 78 53 3d 19 1f c3 3d
       -0.08366022 -0.032097805 0.05162898 0.09527416
0000c0 db 82 4a 3e 4c 26 47 3d bf f9 18 be 8d 0d f9 bb
       0.1977648 0.048620507 -0.1493902 -0.0076004923
0000d0 5a 0a ec 3d 6c bc f9 3d 2e 23 b8 3d f5 6e 2b 3e
       0.11525412 0.12194142 0.08991085 0.16741545
0000e0 4d 27 0d bd 7a de fc bd 6d 61 bc bd c0 0e a9 bb
       -0.03446131 -0.123471215 -0.0919827 -0.005159229
0000f0 b1 b4 0d 3d d7 8f e3 3d d0 b1 93 bd dd e3 2e bd
       0.03459615 0.1111142 -0.072116494 -0.042697776
000100 5a cc f2 3d 69 9e 94 3d a8 cd 08 3e c5 78 e5 bd
       0.11855383 0.07256777 0.13359702 -0.112046756
000110 83 dd b0 3d 4a 92 33 bd af 54 11 be 9c 79 a0 bd
       0.08636 -0.043840684 -0.1419246 -0.07835695
000120 a5 4f 2e be 17 bd af bd 66 4c 90 bd d3 03 ce bd
       -0.1702257 -0.08580988 -0.07045822 -0.10059323
000130 be 2a 0d be f5 30 0a bd 4b cb 9a bd b7 7c b5 bd
       -0.13785836 -0.033738095 -0.07558306 -0.08861678
000140 5e 56 dc bd 68 2e 6b 3d c5 bb c9 3d d2 d4 04 3e
       -0.10758661 0.057417303 0.09850267 0.1297181
000150 9c 01 98 3d 59 f0 c0 3d 8d 6b 18 be 8c ef d8 bd
       0.07422182 0.09420843 -0.14884777 -0.10592565
000160 b3 a4 1a 3e e6 f0 8f 3d 76 27 b3 3c 8f 35 0a 3b
       0.1510189 0.070283696 0.021869402 0.0021089052
000170 d2 77 ce 3c 6c 88 c5 bd fe 2f ee 3d 71 7c a2 bd
       0.02520362 -0.09645161 0.116302475 -0.079338916
000180 db d4 5c bd ba 57 a3 bc 31 dc 11 be 89 0d 0e bd
       -0.053913932 -0.019939292 -0.14244153 -0.034680877
000190 2b 4e f0 3d 2f 84 d3 3d 64 2e f4 3d 81 85 a5 3b
       0.11733659 0.103279464 0.11922911 0.0050513153
0001a0 0d bb 1f bd 2b 1a 07 be 1c ed 47 3d 9d a6 85 bb
       -0.038996745 -0.13193576 0.04881011 -0.0040786997
0001b0 d7 7f f1 bc e9 cf d4 3d eb 21 f0 3b 2d 0f 2e be
       -0.029479904 0.10391218 0.007328262 -0.16997977
0001c0 c0 d3 11 3d 85 1c 26 bd f4 f0 90 3c 2c 39 ec bd
       0.03560233 -0.040554542 0.01769302 -0.11534342
0001d0 be 2e 03 bb 90 dd 84 3d b8 05 34 3c 2a 0c b5 3c
       -0.0020016874 0.06487572 0.010987692 0.022100527
0001e0 c5 00 c3 bc 3e 61 a7 bc c7 c9 76 3d 89 c8 32 3e
       -0.023804078 -0.02043211 0.060251024 0.1745931
0001f0 03 0a 50 3e e0 0f 23 be a9 16 c6 bc 29 76 6c 3d
       0.20316319 -0.15924025 -0.024180727 0.057729874
000200 63 39 b7 bd 7e 2e ee 3c 90 59 f1 3d 5c e2 3a 3d
       -0.089464925 0.029074904 0.11784661 0.04562603
000210 20 9f 4e 3e 82 63 8b 3d e0 21 27 be 5a 68 b3 3d
       0.20177889 0.06806089 -0.16321516 0.08760138
000220 ad ba 29 bd cf b1 98 3d 2d 77 51 3d 12 fe aa 3d
       -0.041437794 0.07455789 0.051139046 0.08349241
000230 cc 11 41 be ac a9 12 3d ab 3c 40 be 8b c2 ca 3d
       -0.18854445 0.035806343 -0.18773143 0.099003874
000240 ef 64 02 3e 91 62 02 3e 21 90 b9 3d a4 6f c9 bd
       0.12733816 0.12732913 0.090606935 -0.09835747
000250 67 35 d1 3d 94 66 34 3e 8d 8e db 3d 22 8a 19 bd
       0.10215264 0.17617255 0.10720549 -0.03748525
000260 99 4f 7d bd d4 ae 2c be bf af 2f 3d cd 0e a8 3c
       -0.06184349 -0.16863567 0.042892214 0.02051487
000270 ef 57 26 be 0c 5d 4b 3d 77 16 9e bd 86 81 3e 3e
       -0.16244482 0.049649283 -0.077191286 0.18604097
000280 d9 b7 8b 3d b6 2f 46 3d a5 85 f0 3d a3 5d e8 3c
       0.068221755 0.048385344 0.11744241 0.028364962
000290 af 01 ab bd 58 66 44 be 15 82 1a be a6 fa 2d be
       -0.083499305 -0.19179666 -0.15088685 -0.16990146
0002a0 59 05 03 3d f0 fe 0b be db 7b 51 3d 2f 01 ac 3d
       0.03198752 -0.1367147 0.05114351 0.08398663
0002b0 f4 e6 8c bd b2 b2 9a bc 3d 14 a3 bb bf f5 2f 3e
       -0.06879988 -0.018884037 -0.004976778 0.17183588
0002c0 96 3f c9 3d f5 c1 12 3e 11 d5 8d bd f9 0b 57 bd
       0.09826581 0.14331801 -0.06925405 -0.052501652
0002d0 ce 35 48 be 26 90 27 3e d2 33 6f bd 59 b5 27 3c
       -0.19551775 0.16363582 -0.05839903 0.010236108
0002e0 69 fb e4 3d e9 e1 33 bd a2 2a 28 3c 7f 27 90 3c
       0.11180765 -0.043916617 0.010264071 0.017596958
0002f0 9a e7 ee bd af fb 2d bd 8d cf ac 3c bc ed 56 3d
       -0.11665268 -0.042476352 0.021095062 0.052472815
000300 02 f0 4d bb 2b 6d ca 3d 13 d8 f4 bd a5 5a 3b be
       -0.0031423573 0.098841034 -0.119552754 -0.18296297
000310 7e 8f 3b be 97 f2 0c be 6b e9 80 3d e2 36 f1 3b
       -0.18316457 -0.13764416 0.06294521 0.007361279
000320 f7 bb 45 bd 4e a7 8e bd 35 3b eb 3d e5 a4 7d bd
       -0.04827496 -0.069655046 0.11485902 -0.061924834
000330 b8 cd e2 3d 2c da 7d bd e6 ae c0 3d 3f 33 f4 3d
       0.11074394 -0.061975643 0.09408359 0.11923837
000340 b7 11 b5 bd 30 90 91 3d af cc 13 3e 7b 9a 26 bd
       -0.088412695 0.0710758 0.1443355 -0.040674668
000350 7c aa 24 bd 18 70 39 3d 87 2f 80 bd 3d 85 73 bb
       -0.04020165 0.045272917 -0.06259065 -0.0037158274
000360 33 46 6a bd 9f a1 d8 bd ff 88 1c be a7 14 d1 3c
       -0.057195853 -0.10577702 -0.15286635 0.025522543
000370 80 7f e6 bd 8c 20 6c bb d8 5b f1 3b ec 36 68 3b
       -0.112547874 -0.0036030142 0.007365685 0.0035433127
000380 9e 2b 25 bd fa 49 83 3d 86 d1 99 bd b4 4f ee 3d
       -0.0403248 0.06410594 -0.075106665 0.11636296
000390 f5 d0 c6 bd 4b a9 2c 3e 44 3c 26 bd ff 4a 21 bc
       -0.09707824 0.16861455 -0.040584818 -0.009844541
0003a0 00 c6 66 bc 7c 49 cd 3d 30 00 78 bd df 26 15 be
       -0.014085293 0.10023782 -0.060547054 -0.1456561
0003b0 47 c9 dc 3c dc 95 77 3d 90 7a 46 3c b5 a2 ff 3d
       0.026951445 0.06044565 0.012114182 0.12482206
0003c0 ac 9d 43 bd 91 79 c4 3b c2 4c 79 3d 64 70 be bc
       -0.04775779 0.005995937 0.060864218 -0.023246951
0003d0 95 d3 c0 bd a7 bf 13 be f9 8f cf 3d 9f 85 84 3d
       -0.09415356 -0.14428578 0.101348825 0.06470799
0003e0 af a3 f8 3d b5 62 10 3b 79 6c c5 3b 65 44 c9 bd
       0.12140595 0.002203149 0.006024894 -0.09827498
0003f0 cc 5d 2e 3e cf 16 a1 3c 00 2b 05 be da a7 2f 3d
       0.17027968 0.019664196 -0.13004684 0.042884685

model.rnn.bias_ih_l1 f4 [160]
000000 e0 df 3e 3d 0a e5 8c bd 92 c2 1c bc cd dd 18 3c
       0.046600223 -0.06879623 -0.009567874 0.009330225
000010 4b 23 f9 3d a6 3e b0 bd d8 99 e5 3c 5d 4e 12 3c
       0.12164935 -0.08605699 0.02802746 0.008929816
000020 6d b4 df bc 6c e9 17 3e 69 c1 81 3d f7 64 19 3e
       -0.027307713 0.14835137 0.06335718 0.14979921
000030 b2 a0 d4 3c c6 49 e8 bd 88 bc 9c 3d 97 07 91 3d
       0.025955532 -0.11342196 0.07653147 0.07081526
000040 d8 2e de 3c 14 3b 2e 3c cd 41 f0 bd 22 e1 13 3e
       0.027121946 0.0106342025 -0.117313005 0.1444135
000050 60 b6 0f 3e bd 77 48 3e a9 0a 84 bd 8b 4e 46 3b
       0.14034414 0.19576927 -0.06447346 0.0030259218
000060 5b 15 d6 3d 3c 58 31 bc 91 71 02 3e eb f9 04 be
       0.10453292 -0.010824259 0.12738635 -0.12985961
000070 82 db 15 3e 6c 07 18 3e 6d 78 e2 bd 99 9e 38 bd
       0.14634517 0.14846581 -0.11058126 -0.045073126
000080 e9 c4 6e bc 59 ec d5 3d 8f e9 43 3e bc f9 0b 3e
       -0.014573314 0.1044547 0.19132064 0.13669485
000090 ec e2 c4 3d ae 4e 12 3e 4b e9 cc bd fd a5 f2 3d
       0.096135944 0.14287826 -0.100054346 0.11848066
0000a0 ad 2b 8d bd e2 3b f7 bc 85 2b cc 3d eb 77 dd 3d
       -0.06893096 -0.030179922 0.09969238 0.10813888
0000b0 9d 3b 8c bd 38 88 e2 3d 59 d2 19 3e 1e e8 b1 bb
       -0.06847308 0.11061138 0.15021648 -0.005429282
0000c0 a6 cd 08 be 80 64 10 3e 98 c8 04 3d bb d8 08 3e
       -0.13359699 0.14100838 0.032417864 0.13363926
0000d0 de 45 99 3d a1 9a 47 3e 29 52 e1 bd d4 8b 54 3c
       0.07484029 0.1949258 -0.11001999 0.012972791
0000e0 4a 11 cd 3d 36 13 9c 3c a9 2e 10 bd 16 24 c3 3c
       0.10013063 0.01905213 -0.03520075 0.023820918
0000f0 99 97 14 3e 87 29 be bd ec 51 1e be 48 28 be 3d
       0.14510955 -0.092852645 -0.15460938 0.09285027
000100 72 b6 31 3d d9 e0 6b bd 06 da f1 bd 3c c1 26 3e
       0.043386884 -0.05758748 -0.11809163 0.1628465
000110 57 89 a2 3d a5 54 31 3e 2c 44 9b bd 77 5f 45 3e
       0.07936352 0.17317446 -0.07581362 0.19274698
000120 a6 ae 46 3e 83 4f ef 3d a0 29 bc bb be db d3 3b
       0.1940256 0.116850875 -0.005742267 0.0064654043
000130 e7 47 2a 3e a3 56 48 3c f6 6d c8 3d 44 5d 98 3d
       0.16628991 0.012227687 0.097865984 0.07439664
000140 de 2a bf 3d 74 b0 fa bd ff a8 00 3e 94 55 22 3d
       0.09334348 -0.12240687 0.12564467 0.039632395
000150 7b c8 95 3d be 70 e0 3d 6e 51 f0 3b ed 5d 97 3c
       0.07313629 0.10959004 0.007333926 0.018477404
000160 33 a1 05 bd 6a e2 3a 3d a7 ea 59 bd 59 09 d0 3d
       -0.032624435 0.04562608 -0.053202298 0.10158033
000170 22 5a 17 3e 0f 53 9f 3d 40 1d 7d 3d 8e 32 d5 3d
       0.14780477 0.07779514 0.061795473 0.10410033
000180 06 95 d8 bd 9a 22 17 3d 6e d3 15 be bf ef 3c bc
       -0.10575299 0.036898233 -0.14631435 -0.011531769
000190 d6 a7 fa bd 4e 83 13 3e 0b 3c 97 bc c3 84 02 be
       -0.122390434 0.14405558 -0.018461248 -0.12745957
0001a0 43 39 16 bd 26 d3 00 3e 78 6e eb bc 56 2e a1 bc
       -0.036675703 0.12580547 -0.028739199 -0.019675415
0001b0 c6 8b b4 3d fb 69 ef 3d c2 c7 55 bd 6f d6 6a bd
       0.08815722 0.11690136 -0.052192457 -0.057333406
0001c0 42 50 9b bd e0 f2 32 be fd e9 c3 bd e3 01 1f be
       -0.07583667 -0.17475462 -0.09566114 -0.15528063
0001d0 f3 e0 2a be a6 4a 20 3c 5a d2 12 bd 37 fb a5 3d
       -0.16687374 0.009783423 -0.035845138 0.08104556
0001e0 21 8f 3e 3e 44 c8 8e 3d c3 e4 05 3c 65 87 69 3e
       0.18609287 0.069717914 0.008172217 0.22805555
0001f0 a1 db 2e 3e 85 ef 57 3c 7a b0 24 3c e2 ce 95 bc
       0.1707597 0.0131796645 0.010051841 -0.018287126
000200 6a 27 db 3c 11 86 ac bd 56 b6 35 3d ed 30 53 3e
       0.026752193 -0.08424009 0.044363342 0.20624132
000210 e5 5d 6e 3c ed c2 9d 3d b5 2c e4 3d 2c bc df bd
       0.014548753 0.07703195 0.1114134 -0.10924563
000220 56 ae 31 3c dc c8 2c 3e 32 0a ae bd 7f 51 bc 3c
       0.010844788 0.16873497 -0.08498038 0.02298808
000230 38 73 be 3d e3 cf 55 bd 7f ff cc 3d 7b 60 0d 3e
       0.0929932 -0.05220021 0.100096695 0.13806336
000240 e9 a9 fc 3d ac 1b e0 3d c6 62 3d 3d 8e 5c 82 3d
       0.12337095 0.10942778 0.046236776 0.0636531
000250 20 82 ae 3d 0a 7b ec bb 90 95 50 3e 60 e1 37 3e
       0.08520913 -0.007216816 0.20369554 0.17957067
000260 6c 21 09 3c 2d 77 54 3e ab cf cf bc 5c 55 df bc
       0.008369785 0.20748587 -0.025367578 -0.027262382
000270 89 62 13 3e 54 8c 6d 3d cd a2 d4 3d 60 ec 35 3d
       0.14393057 0.057995155 0.10382614 0.044414878

model.rnn.bias_hh_l1 f4 [160]
000000 29 5a 29 3e 88 50 33 3e 0d f8 97 bd 79 ec 04 3e
       0.165383 0.17511189 -0.07420359 0.12980832
000010 0d 61 18 3e fa 44 11 3e 32 f6 3f bd 6f 21 71 3d
       0.14880772 0.14186469 -0.04686565 0.058869775
000020 61 22 fa 3d 5b 35 a5 3d bf 99 15 3e a9 f6 88 bd
       0.122135885 0.080668174 0.1460943 -0.06687672
000030 37 22 33 3d 79 bd 46 bd fa e4 ea bc 36 92 be 3d
       0.0437338 -0.04852054 -0.028673638 0.09305231
000040 65 68 97 bd db 41 97 3d 4f ed bf 3d e9 1c 51 bd
       -0.073929586 0.07385608 0.09371435 -0.05105296
000050 b2 8f 14 3e 92 67 d2 3d 18 52 d9 bd ca e8 8c bb
       0.1450794 0.10273661 -0.10611361 -0.0043002116
000060 3d 32 2c 3b 6c f9 52 3c 64 a1 50 3c fd a3 fe bc
       0.0026275062 0.01287685 0.012733791 -0.031084055
000070 cf 12 1b 3e 51 36 df 3c ed 5d e3 3d 1c 71 b6 bd
       0.15143894 0.02724758 0.11101899 -0.08908293
000080 4d 74 4e bb 3b a9 58 3d 9d c8 24 3e ec 5d 3b bd
       -0.0031502426 0.052895766 0.16092153 -0.045743868
000090 e3 c3 0d 3e 50 37 be 3d d8 aa 85 bd a1 69 ae bd
       0.13844256 0.09287894 -0.065267265 -0.08516241
0000a0 9f 86 78 bd 84 1f b0 bd 5e 29 ee bd 12 5b e8 3c
       -0.06067526 -0.08599761 -0.11628984 0.028363738
0000b0 40 ef df bc 55 b0 62 3d dd 38 9a b9 3f 21 ba bc
       -0.027335763 0.055343945 -0.00029415535 -0.022720931
0000c0 57 cf 31 bd 4e e8 0a 3e 93 cf a4 3d a4 2f ed 3a
       -0.043410625 0.1356518 0.08047404 0.0018095863
0000d0 16 0a 7e 3b 40 a2 2e 3e 53 1b ca 3d 8a b0 25 be
       0.0038763336 0.17054081 0.09868493 -0.16180626
0000e0 f7 52 e7 bd 63 ea eb bd 93 5d 27 3e c6 f7 a6 3d
       -0.11295121 -0.11519315 0.1634429 0.08152728
0000f0 5c f0 3d 3e 1a eb a7 3d 42 d7 f6 3d 2f ac f9 3d
       0.18548721 0.08199139 0.12052776 0.121910445
000100 bf b9 1b 3d 50 31 4e bd 2a c3 ed 3d 3a 0e 23 3e
       0.03801894 -0.050339997 0.1160949 0.15923396
000110 03 fb 47 bd e0 08 20 3e fd e5 dd 3c 2b ad b1 3d
       -0.048823368 0.15628386 0.027087206 0.08675607
000120 58 67 93 bd f8 89 5f 3c fb e4 a0 bc ad 6b 41 bd
       -0.07197446 0.013643734 -0.019640436 -0.04722183
000130 28 3a 04 3e c7 21 f8 bd ae 02 c6 3d 21 86 e0 bd
       0.1291281 -0.121158175 0.0966848 -0.10963083
000140 45 c9 8e bd 5d 23 56 bd ed ab 21 3e 95 2d 26 3e
       -0.06971983 -0.05227982 0.1578824 0.16228326
000150 5a 8c 39 3b 7a 98 36 be fe d3 4a bd 3f 5b b3 3d
       0.0028312416 -0.17831603 -0.049518578 0.08757638
000160 a3 47 0d bd 0a 07 02 be ed a3 8b 3b 23 04 23 3d
       -0.034492146 -0.12697998 0.004261485 0.039798867
000170 2e d0 a7 3d 75 3b 34 3e f0 e7 94 bd ec 00 91 3d
       0.08194004 0.17600806 -0.07270801 0.07080254
000180 3a 79 0f bd 25 9f a7 bd da b0 b3 bc a1 8f 0c 3e
       -0.03502772 -0.08184651 -0.021934915 0.13726665
000190 5b 57 a5 3c 47 ba a3 bd 4e 30 a5 bd a0 53 c0 3d
       0.020183256 -0.07994514 -0.08065854 0.0939095
0001a0 85 d7 f3 3d 4f a0 d4 bd f2 0d 28 be 8b a4 e7 3d
       0.119063415 -0.10382139 -0.1641157 0.11310681
0001b0 4f 55 a5 3c 2b 03 21 3e 92 c7 6a bd d4 8f 26 bc
       0.02018228 0.15723865 -0.05731923 -0.010166127
0001c0 e7 5e ce 3d dc 95 d3 bd ec 03 43 bd 2c 29 c4 3d
       0.10076695 -0.10331318 -0.047611162 0.095781654
0001d0 ad 45 35 be e2 0a eb bc 57 13 3d 3d ee 5d 5e 3c
       -0.1770236 -0.028691713 0.046161022 0.013572199
0001e0 b5 6b 5b bc 83 0a 43 bd cd ae 89 3d d0 3c 95 bd
       -0.013392379 -0.047617447 0.06722794 -0.0728699
0001f0 18 ea c7 bd 53 31 22 3e 56 3a 85 3d a2 e4 a8 3d
       -0.09761447 0.15839128 0.06505267 0.08246733
000200 6c d4 bc bc 33 3b 14 3e fa 73 24 3e 07 df a8 3d
       -0.02305051 0.14475708 0.16059867 0.08245664
000210 d4 e0 3d 3e b9 36 c6 3c 01 28 46 3e 0c 4a 16 be
       0.18542796 0.024196016 0.19351198 -0.14676684
000220 1d 83 c5 3d 00 36 e6 3b 2f bd a2 3d c4 ab d2 bc
       0.096441485 0.0070254803 0.0794624 -0.02571667
000230 11 0f 27 3e ab c1 a3 bd 3c cb 4b bd 39 a2 1e 3e
       0.16314341 -0.079959236 -0.049754366 0.1549157
000240 73 28 cd 3d 68 35 8c 3d e7 c0 a4 bd cd a7 d8 3d
       0.10017481 0.06846124 -0.08044606 0.105788805
000250 5a 9a af bd a5 f4 b8 bc 73 73 b6 bd 8e 84 b7 3d
       -0.08574362 -0.022577593 -0.08908739 0.0896083
000260 ce f5 d3 bd 62 b0 39 3e c0 a7 41 3d 1e 5c 4b 3d
       -0.10349618 0.18133691 0.04727912 0.049648397
000270 f4 fc 93 bd 81 28 49 3e 0d fd db bd 8c c2 bb bd
       -0.07225981 0.19644357 -0.10741625 -0.09167966
