AutogluonModels/ag-20250207_142636/models/DeepAR/W0/gluon_ts/prediction-net-state.pt (torch, 118112 bytes, 11 tensors)

model.param_proj.proj.0.weight f4 [1, 40]
000000 37 4e 71 3e bf e7 3f be 96 dd 82 3c ad b9 4e be
       0.23564993 -0.18740748 0.015974801 -0.20188017
000010 85 31 c4 bd 76 3e 83 3d cb a3 13 be 69 75 4b 3e
       -0.095797576 0.06408398 -0.14417951 0.19869007
000020 15 6c 06 be 6a ec 50 bd b4 62 97 bd 46 a9 67 bc
       -0.13127168 -0.051006712 -0.07391873 -0.014139479
000030 44 10 e5 bc b8 b3 0b be 30 5f 57 be cf ac d3 bc
       -0.027961858 -0.13642776 -0.21032405 -0.025839237
000040 e9 e4 d2 bb 35 e3 b6 bd e6 61 3f 3d 69 ae 2b 3e
       -0.0064359796 -0.08930055 0.046724223 0.16765751
000050 55 b2 65 3e 2a c7 87 3d 81 28 08 be 27 54 a3 3c
       0.2243131 0.066297844 -0.13296701 0.019937588
000060 e4 6f 16 bd 7b e6 47 bd e3 48 a1 3d d1 5a aa bd
       -0.0367278 -0.048803788 0.0787523 -0.08318103
000070 53 fd 23 3e 41 eb a6 bd fb c3 2a 3d 62 1f 4f 3d
       0.16014604 -0.0815034 0.041690808 0.05056704
000080 08 79 de 3d 4f 88 e9 3c 10 cd 89 3d a9 17 06 3d
       0.10862929 0.02850738 0.06728566 0.032737408
000090 15 1a 17 be ae 73 60 3e d6 c8 86 bc 34 0f 85 3d
       -0.14756043 0.21919128 -0.016453188 0.064970404

model.param_proj.proj.1.weight f4 [1, 40]
000000 53 2c 5a be fd 67 8a 3d a0 7d ee ba 38 69 c8 3d
       -0.21305971 0.067581154 -0.0018195398 0.09785694
000010 6d e2 0a be 0a 53 13 3e c0 82 b4 3d 7f a0 15 be
       -0.13562937 0.14387146 0.08814001 -0.14612006
000020 24 b2 30 3e 0f 07 fc bd 5b 0a 00 be 78 c1 02 bd
       0.17255455 -0.12306034 -0.1250395 -0.031922787
000030 ac b8 7c 3d 49 b3 48 3d 48 af 64 3e 20 56 d5 3d
       0.061699554 0.048999105 0.2233249 0.10416818
000040 11 0d 84 3d cb e7 fb 3d b4 f1 ac 3c 4a 5a fa bd
       0.06447805 0.123000704 0.021111347 -0.122242525
000050 1f 57 18 bd 08 a9 23 be 98 0d 10 be 48 e2 37 3e
       -0.03719246 -0.15982449 -0.14067686 0.17957413
000060 99 0f fa bd 2a dc fc 3d 22 0f ad bd 9e e4 ec bc
       -0.12210006 0.123466805 -0.08450152 -0.028917607
000070 1f 19 f5 3b 98 96 ed 3d 6e 41 43 bd ff a0 ce 3d
       0.0074798013 0.11600989 -0.04766982 0.10089301
000080 6e 1e 96 bd 69 f2 cf bb 75 39 84 3d c7 f7 0a be
       -0.07330023 -0.006346036 0.064562716 -0.13571082
000090 08 ae b5 bc 07 25 98 bc 35 fe c8 3d cd 68 22 be
       -0.022177711 -0.018572344 0.09814111 -0.15860291

model.param_proj.proj.2.weight f4 [1, 40]
000000 10 da cf bb 81 03 c9 3d ed 07 d2 bd 54 a1 2f be
       -0.0063431337 0.098151214 -0.10255418 -0.17151386
000010 73 c7 7b 3e 36 28 14 3e ba bb 38 be 14 cb c3 bd
       0.24587803 0.14468464 -0.18040362 -0.095602185
000020 95 f0 61 3e 41 70 52 3e d4 28 90 3e 4f d3 14 be
       0.22064431 0.20550634 0.2815615 -0.14533733
000030 2f e0 67 be c3 2a 85 3e 53 38 21 3e 8b 5d 8c be
       -0.22644113 0.26009187 0.15744142 -0.27415118
000040 68 b1 78 3e 8c 1e 52 be c8 87 51 3e 8e 57 48 be
       0.24286425 -0.20519465 0.20461953 -0.1956465
000050 8f 7b 0d 3e 2a 0b b8 3d 58 ca 22 be 8a ee 33 3d
       0.13816665 0.089865044 -0.158975 0.04392866
000060 b0 d4 48 be 2a be 80 3e 10 95 2a be c9 34 81 be
       -0.19612384 0.25145084 -0.16658425 -0.25235584
000070 76 20 31 be 99 75 29 3e e0 c5 58 3e 95 fa 03 be
       -0.17297539 0.16548766 0.21169233 -0.12888558
000080 b6 e2 0d 3e b1 e5 45 3e 7b 1d 61 3e 88 fc 82 be
       0.13856015 0.19325902 0.21983902 -0.2558329
000090 56 61 86 be 5d 90 1c be c2 1d 88 3e 28 4c 08 be
       -0.26246136 -0.15289445 0.26585203 -0.13310301

model.rnn.weight_ih_l0 f4 [160, 51]
000000 f2 87 e6 3c f0 d6 02 be 51 3f f7 3b 2e 91 da bc
       0.028140996 -0.12777305 0.0075453897 -0.026680555
000010 ae 79 39 3e 1d 08 d1 bc f5 69 36 bd 11 91 84 3b
       0.18112823 -0.025516564 -0.044534642 0.0040456136
000020 1d cc 47 bc 7d 72 b2 3d 4e b8 30 bd b3 91 ec bb
       -0.0121946605 0.08713243 -0.043144517 -0.007219517
000030 86 e1 11 3e 24 40 0b 3e 1b f1 0c be f8 93 b5 3d
       0.14246187 0.13598686 -0.1376385 0.088661134
000040 43 93 1f be bc 72 4f 3d f6 4c ff bd 47 17 94 bc
       -0.1558352 0.05064653 -0.12465851 -0.018077506
000050 00 5c 14 3e c4 ce 56 3c 35 7b 1b be c4 91 8b 3d
       0.1448822 0.01311082 -0.15183719 0.06814912
000060 d0 f4 92 bd 8e ed 89 bd 2a 89 23 3e b8 69 7d bd
       -0.071756005 -0.06734763 0.15970293 -0.0618684
000070 eb 7a 82 3d 54 37 7c 3d b3 c8 e8 bd ed d0 c7 3d
       0.06371101 0.061576203 -0.11366405 0.09756646
000080 a3 f3 b6 bd 0c 67 0e bc 1a 0e 4e be 62 eb be bd
       -0.08933189 -0.0086915605 -0.20122567 -0.093222395
000090 38 68 da 3c c4 6d 35 3e c5 d9 11 3e 2f 9a 48 3d
       0.026661023 0.17717654 0.14243229 0.048975166
0000a0 0f e1 58 3e 38 77 06 be cf 1f 2f 3e e7 2d 8a 3a
       0.21179603 -0.13131416 0.17101978 0.0010542244
0000b0 56 6a 08 3e 5a ca a3 3d 5e cd c9 bb fc d0 3f 3e
       0.13321814 0.0799758 -0.006158515 0.18732065
0000c0 a3 4b d3 3b e3 2f 91 3c 49 63 70 3d cf 15 67 3d
       0.0064482256 0.01772303 0.058688436 0.056417283
0000d0 fa 24 fa 3d 85 20 c2 bd bc 0d d9 bb 47 cc 20 3e
       0.12214084 -0.09478859 -0.0066239517 0.15702926
0000e0 ea 28 28 3e a2 de 47 bd 70 3f 0e 3e df 05 12 3e
       0.16421857 -0.048796304 0.13891387 0.14260052
0000f0 56 15 56 bd 29 0b 42 bd 24 ea 03 3e 36 3e 68 3d
       -0.05226644 -0.047373924 0.12882286 0.056699954
000100 d6 02 db bd 24 62 1d 3e 2b 69 67 3d 1a 8e 02 3d
       -0.106939 0.15369469 0.05649678 0.0318738
000110 68 d9 f5 bd 3c 56 a9 bd 55 9b e5 3d 44 d3 dc bb
       -0.120043576 -0.08268401 0.11211268 -0.006739052
000120 56 ec 4a 3d 82 26 9f bd 19 f8 24 bd 58 29 35 bd
       0.049541794 -0.07771017 -0.040275667 -0.04422888
000130 31 3a e3 3c d0 0e 1d 3e 88 2c 90 3d b6 05 26 3e
       0.027737709 0.15337682 0.07039744 0.16213116
000140 0a 84 cb bd 35 5f 2d 3e 01 ed fa 3d 4b 91 85 bd
       -0.09937294 0.1693085 0.12252236 -0.06521853
000150 01 c8 fe 3d 06 51 2a 3e e6 f2 92 3b 79 69 08 3c
       0.124404915 0.1663247 0.004484522 0.008325928
000160 01 40 b9 3d 26 0a 0d 3d 4a a4 88 bd fa e1 d8 3d
       0.09045411 0.034433506 -0.06671961 0.105899766
000170 c3 8a ac 3c 75 f1 cf 3d 67 2c 67 bd 9c ae f8 bd
       0.02106226 0.10153476 -0.05643883 -0.12142679
000180 be dd 9c bd ac 9d 25 3d 39 75 4d 3c 7a d0 8c 3d
       -0.076594815 0.04043357 0.012540155 0.06875701
000190 66 e8 97 bb 05 ee a8 3d 90 bb 5f 3d 96 0a 0a be
       -0.0046358583 0.082485236 0.054622233 -0.134806
0001a0 ab 55 c1 bd 3f 70 da bd ff c8 b2 3d 0e 5d 70 bd
       -0.09440168 -0.106659405 0.08729743 -0.058682494
0001b0 c5 85 9b bd 69 66 0d be 86 8d cd 3d 66 56 df bc
       -0.07593874 -0.13808598 0.10036759 -0.027262878
0001c0 95 6c 73 bc 16 8d bb bc 91 c9 2b 3c 74 4d 27 3d
       -0.014857431 -0.022894423 0.010485069 0.04084535
0001d0 7d 30 f7 3c 18 d2 b8 3d 6f f6 e7 3d 6f 23 84 bd
       0.030174488 0.09024447 0.113263 -0.06452071
0001e0 fe 0f 06 be cf f5 98 bc 98 0d 44 3d 52 1e dc bd
       -0.13092038 -0.018671898 0.047864527 -0.10747971
0001f0 aa 9a 9e bc eb 02 cf 3d 1b 73 cb bc 35 7a 55 bd
       -0.019360859 0.101079784 -0.02483516 -0.0521185
000200 a5 ff 06 be 82 d7 37 3d 5a 78 a9 bd 91 f3 31 be
       -0.13183458 0.04488326 -0.08274908 -0.1737807
000210 ee 96 ac bd 64 2f 6d 3d f6 c6 1e 3d b4 84 56 3d
       -0.08427225 0.057906523 0.038763963 0.05237265
000220 3f 2e b0 3c 3b 70 14 be 79 ec 0b bd f9 0f 20 3b
       0.021506427 -0.14495938 -0.034161065 0.0024423583
000230 93 5b b0 3d 14 77 ad bc de de 36 be 80 2b 29 bd
       0.086112164 -0.021174945 -0.17858455 -0.04130125
000240 cb 7b c3 3c 92 ac 7c 3d 5c 68 a0 3d fc 88 e9 bc
       0.02386274 0.061688013 0.07832405 -0.028507702
000250 65 aa d5 bd 55 c5 ea 3d 78 45 d8 3d e9 f6 2d bd
       -0.10432891 0.11463419 0.10560125 -0.0424718
000260 01 78 2d be 35 de 81 bd 40 55 18 be c2 18 f7 3c
       -0.16940309 -0.06341211 -0.1487627 0.030163173
000270 d6 35 9c 3d 0e 7e eb 3d ea 80 1b bd 0a 29 00 bd
       0.07627456 0.114986524 -0.03796474 -0.031289138
000280 c0 ae ce bd 54 ec a7 bb 84 ae dc 3c 49 4b be bc
       -0.10091925 -0.005124608 0.026938684 -0.023229258
000290 41 58 34 3e 7d 18 0c 3d 83 f4 99 bd a3 62 c4 3d
       0.17611791 0.03420304 -0.0751734 0.09589126
0002a0 33 72 e4 3c 07 83 ae 3d 2f 57 b1 3d 3c d4 c9 3d
       0.027886486 0.08521085 0.08659207 0.098549336
0002b0 8c 06 1f be 7d b0 cc bd 6d 5a 2f bd 4c be 9b bd
       -0.15529841 -0.099946 -0.042810846 -0.076046556
0002c0 1c 27 0b be ff 5a 86 bd 69 12 19 bc 90 ce 39 3d
       -0.13589138 -0.06560325 -0.009342768 0.04536301
0002d0 88 f6 1e bd 2b e3 91 3d 65 e9 e7 3d 0f b8 a2 3d
       -0.03880933 0.07123407 0.11323813 0.07945263
0002e0 5c 6c 0b be b6 57 8c bd 89 03 e5 bc 1f 11 3f 3d
       -0.13615555 -0.06852667 -0.027955787 0.046647187
0002f0 6b dd 9f bc 0e 70 73 bd ed fa 90 bd 32 77 01 bd
       -0.01951476 -0.059433036 -0.0707911 -0.031607814
000300 6c 58 14 3e e8 43 79 be a3 4a e3 3b f9 cb b8 bd
       0.14486855 -0.2434231 0.0069363876 -0.0902328
000310 14 24 31 3e 6f 6d 33 bc ac 41 c4 bd c8 41 6c bd
       0.17298919 -0.010951384 -0.095828384 -0.05767992
000320 2a ad 50 be e1 cb 47 3d 09 3f 17 be 0e 0d 01 be
       -0.20378557 0.04877842 -0.1477014 -0.12602636
000330 fd 93 e9 3d d9 3f b6 bd 5d 60 1b be e7 4e c7 3d
       0.1140518 -0.08898897 -0.15173478 0.09731846
000340 8d 62 35 3d e2 9a 7e 3d 54 fe 8f b9 a6 46 b6 3d
       0.04428344 0.062159427 -0.00027464575 0.08900194
000350 e1 31 be 3c 07 d7 28 3c 56 45 00 be 7f 72 1d 3b
       0.023217143 0.010305173 -0.1252645 0.0024024544
000360 db 51 f6 3c 66 e1 7b bd 04 26 75 3d 58 5e 17 be
       0.030068329 -0.061494254 0.059850708 -0.14782083
000370 c2 a2 19 be c3 d2 77 bd 6d 3f 85 bd 84 f4 94 3d
       -0.15003493 -0.060503732 -0.06506238 0.072732
000380 5f 1d a9 3d 8a 67 76 bd 33 1f c8 3c d2 af f4 bc
       0.08257555 -0.060157336 0.02442894 -0.029868994
000390 2f 47 ce 3c f7 8f 9b 3c bd 8b 4f bd 5e 86 41 3e
       0.025180427 0.018989546 -0.050670374 0.18898913
0003a0 c5 3f 11 3e 18 77 41 3d b0 4d d8 bd 0e ce e3 bd
       0.14184482 0.047232717 -0.10561693 -0.11123286
0003b0 04 e1 eb bb af 91 39 3d 0c 4f 75 3d 7b 9c cd 3c
       -0.007198455 0.04530495 0.059889838 0.02509903
0003c0 e2 b1 ab 3d ce 7b 24 3c 83 46 26 be 91 bc e1 bb
       0.08383538 0.010039283 -0.16237836 -0.006888934
0003d0 eb 7b fe bd 23 04 0f be 23 8e 4c bb 1f 96 b2 bd
       -0.12425979 -0.13966422 -0.003121265 -0.087200396
0003e0 9b fb bd 3d 72 65 9a bd 9a 13 5c 3b 76 94 a0 bd
       0.092765056 -0.075388804 0.003358102 -0.07840817
0003f0 9f 67 43 be e4 7e 7e 3d 2a 3e 39 3d 44 b3 e9 38
       -0.19082497 0.06213273 0.0452253 0.000111436966

model.rnn.weight_hh_l0 f4 [160, 40]
000000 aa 61 2f be 8e 08 ab 3b 3c 90 76 3d 34 1f 32 3e
       -0.171271 0.0052195257 0.060196146 0.17394716
000010 1d 2b e5 3d 21 22 76 3c eb 8d fa 3d 48 e8 b4 bc
       0.11189864 0.015022785 0.122341 -0.022083417
000020 e7 b4 c9 bd ee 61 01 3d ce 01 13 3d 60 c5 80 bd
       -0.098489575 0.031587534 0.035890393 -0.06287646
000030 63 f0 e0 bc 62 b9 e6 3d 93 bc dd 3d 1c f4 d5 3d
       -0.027458375 0.11265828 0.10826983 0.10446951
000040 59 bf 80 be 34 44 12 bc a0 68 81 3c 0e 0b 09 be
       -0.25145987 -0.008927394 0.01579696 -0.13383123
000050 9c 20 99 bd ff 8e 59 bd f2 9c d6 bd 49 1a d3 3d
       -0.07476923 -0.053114887 -0.10479154 0.10307748
000060 78 8a 29 3d b2 68 7b 3d 0b d5 48 3d f2 59 be 3d
       0.04139182 0.061379142 0.0490313 0.092944995
000070 70 87 0a 3c ce e5 9f bd 88 4a 82 be 35 5c 88 be
       0.008455142 -0.07807504 -0.25447488 -0.26632848
000080 8f b0 53 be 8f a1 be bd f3 e8 89 3c 46 3e 9d bd
       -0.2067282 -0.093081586 0.016834712 -0.07677893
000090 2c dd 4e 3d a1 cb 8f bd 2b d0 73 3e b2 90 3d be
       0.050503895 -0.07021261 0.23809879 -0.18512228
0000a0 d9 3c a9 bd 2d c7 5d 3d 85 3e ea bd 74 61 18 bd
       -0.08263559 0.054145027 -0.11437706 -0.037202314
0000b0 20 19 36 3e 5e 96 02 be 6c ef ac 3c 83 96 78 bd
       0.17783022 -0.12752673 0.021110259 -0.060690414
0000c0 e4 b8 64 bd fc 42 22 bd 2f 05 29 3d 4b 74 bd bc
       -0.055840388 -0.039614663 0.04126471 -0.023126742
0000d0 dd 90 a4 3d db 51 fb bc 0b 43 2d be eb 80 1d 3e
       0.08035443 -0.03067868 -0.16920106 0.1538121
0000e0 ce 04 d2 bb cd 1b 30 be d0 8e c8 3c ca e9 27 bd
       -0.006409264 -0.17198105 0.02448216 -0.040994443
0000f0 f1 51 99 3d 1a 31 10 be 58 76 aa 3c 9b e4 2a bd
       0.07486332 -0.14081231 0.020808384 -0.04172192
000100 b4 42 70 3c ec cd 01 3d a5 52 2a 3d f9 85 18 3e
       0.014664341 0.031690523 0.041582722 0.14894857
000110 51 7f d6 3d a2 19 e8 bc 73 74 a2 bc 12 7d 08 be
       0.104735024 -0.028332535 -0.019830918 -0.1332896
000120 6c 9c 86 bc 3b 80 aa bd 55 86 eb bd 42 a6 02 3d
       -0.01643201 -0.08325239 -0.11500231 0.031896837
000130 58 f9 9b 3c fc fb 0a 3e d1 63 c2 3d 86 f5 a9 3d
       0.019039795 0.13572687 0.09491695 0.08298783
000140 87 d7 e6 bc 7e 37 18 bd 2a eb 96 bd de d2 38 3d
       -0.028178943 -0.037162296 -0.07369073 0.045122974
000150 52 22 8c bb f0 36 f6 3d c6 92 16 3e 58 7c 69 3d
       -0.0042765522 0.12022197 0.14704427 0.05700335
000160 75 b7 11 be 98 81 f3 bd b5 dc 22 bd 8f b2 7b bd
       -0.1423014 -0.118899524 -0.039761264 -0.061449584
000170 b5 c9 ee bd 0c ca 60 3c 85 fa aa bc 7a 74 99 3a
       -0.11659566 0.013720047 -0.02087141 0.0011707686
000180 d6 c2 95 3d 27 50 99 bc 66 6c 51 bd 0e 2f 83 3d
       0.07312553 -0.018714977 -0.051128767 0.06405459
000190 a2 46 df 3d 2a 63 26 be 22 23 64 bd e4 d0 42 bd
       0.10902144 -0.16248766 -0.055697568 -0.047562495
0001a0 85 28 b5 3d d8 dc ba 3c 7f b4 fd 3c ab 13 0d be
       0.08845619 0.022810385 0.030969856 -0.13777034
0001b0 06 d6 01 3e cb 6d 99 3d 08 93 0c 3d ad db 70 bd
       0.126793 0.074916445 0.034319907 -0.05880325
0001c0 a5 b0 f7 3d 9c 27 36 3c 42 eb cd 3c ed 5e a8 3d
       0.12094239 0.011117842 0.025136594 0.08221231
0001d0 b5 ec 1d 3d a6 c8 e7 3a 72 9c a8 3d 67 ae 57 3d
       0.03855582 0.0017683699 0.082329646 0.052656557
0001e0 f4 74 0a be a9 ac 3a 3e 27 df 5e 3a 5a b2 1c 3d
       -0.13521177 0.18229927 0.000850188 0.038256027
0001f0 b8 d1 e3 bd 90 da 0b be a0 fe 29 3d 30 bb 16 3d
       -0.11123985 -0.13657594 0.041502595 0.03679961
000200 06 ac 63 bd 13 08 f6 bd 1f a1 b1 bd 8d 88 df 3c
       -0.055583976 -0.12013259 -0.086733095 0.027286792
000210 62 4d d8 3d ab 5f 34 bd 07 b1 f8 3c 0b 07 b9 3d
       0.105616346 -0.04403655 0.03035785 0.090345465
000220 f4 28 14 3d 53 bf 97 3d 0d c0 b5 bd ce 29 5a be
       0.03617187 0.07409539 -0.088745214 -0.2130501
000230 4b a4 32 bd df 48 10 be 59 b2 c6 3c 2e 15 a2 bd
       -0.043613713 -0.14090298 0.024254965 -0.07914196
000240 c6 be 90 bd ab 0b 14 be 54 ac 77 bd ac 6f d0 bc
       -0.07067637 -0.14457576 -0.06046708 -0.025443874
000250 12 bc 80 3d 57 b3 09 be 38 9b 17 3e ba 8c 07 be
       0.062858716 -0.13447319 0.14805305 -0.13237277
000260 e5 64 4e 3c 0d 2b 0e 3d 68 82 70 3d 33 81 69 bd
       0.012597297 0.034709025 0.058718115 -0.05700798
000270 52 a9 1c bd 81 ec 01 be d3 d8 ab bb 3a 59 18 3e
       -0.038247414 -0.12687875 -0.0052443533 0.14877787
000280 c6 17 8d 3b 94 ca 5c 3a 3f f6 20 3c 1c 6b 0b bd
       0.0043058125 0.00084225205 0.009824335 -0.034037694
000290 4e 47 85 3d 19 14 58 3e 33 2b c8 3d 10 e8 02 be
       0.06507741 0.21101417 0.097738646 -0.12783837
0002a0 e1 e2 aa 3c 0d 3c aa 3d dd a1 1a 3e 32 bf 01 3b
       0.020860137 0.08312235 0.15100808 0.00197978
0002b0 14 13 0b be 2a b6 6f 3e 2d c7 05 3e 30 8d 27 3e
       -0.13581496 0.23409334 0.13064261 0.16362453
0002c0 43 48 9a 3d 29 f0 3c be 7b 32 48 3d 6c c4 80 3d
       0.07533314 -0.18450989 0.048876267 0.062874645
0002d0 05 78 6c 3e 64 e5 06 be 7f 62 0c 3c b8 02 0c 3e
       0.23092659 -0.13173443 0.008568405 0.13672912
0002e0 b5 dd e3 3d 5d 35 79 bd 67 86 c8 bd e2 77 5e 3c
       0.11126272 -0.060841907 -0.0979126 0.013578387
0002f0 f4 9b 43 3e b7 93 0d bd 21 43 0f 3d d0 36 7c bd
       0.1910246 -0.0345647 0.03497613 -0.06157571
000300 e6 8b 07 bd ca fb 10 bd 33 2a 0a 3e fe 41 de bd
       -0.033092402 -0.035396375 0.1349266 -0.10852431
000310 3f 43 e4 3d 30 eb 38 3e 57 7c 0a 3d e6 fb bc bd
       0.11145639 0.18058467 0.033809986 -0.09227733
000320 75 5f 0d be 8d 08 12 be 68 62 e4 3d ab bb d7 3d
       -0.13805945 -0.14261074 0.11151582 0.10533842
000330 44 3c 4e 3e 0b 3a d5 3d c0 49 1e be fb 27 cf bd
       0.20140177 0.104114614 -0.15457821 -0.101150475
000340 89 a6 b6 bd fa 58 02 be 06 cb 51 3e a3 a1 19 3d
       -0.08918483 -0.12729254 0.20487604 0.037507664
000350 8d 7e 4c be 1d 13 4e 3e f6 3f d4 bd 09 bb 9d bd
       -0.1997015 0.20124479 -0.10363762 -0.0770169
000360 b3 55 83 bd ed d3 dd bc b5 c1 9e bd b2 4a 89 3c
       -0.0641283 -0.027078593 -0.077517904 0.01675925
000370 5f 61 c7 bd c2 2c 13 3d 1d 34 b4 bd c9 bb 2e 3c
       -0.09735369 0.035931356 -0.08799002 0.010664889
000380 ef 5c ec bc 07 ee ed bd cc 3c 10 3e 54 12 10 3d
       -0.028852908 -0.11617666 0.14085692 0.03517373
000390 90 9d e3 3d 42 f9 6a bd 81 4b 7a 3d 1b 52 60 bd
       0.11114037 -0.057366617 0.061107162 -0.054765802
0003a0 6a c9 5b be b2 e2 4d 3e 37 6a df bd ac 0b 50 3c
       -0.21463552 0.20106009 -0.10908931 0.012698095
0003b0 08 5e 40 3d bc 34 34 3e 26 39 9a 3b 81 0d 00 be
       0.046964675 0.17598242 0.0047065197 -0.12505151
0003c0 65 d4 38 3d f7 1a e1 bd 89 05 ee 3c 59 24 d7 3d
       0.04512443 -0.10991471 0.029055374 0.1050498
0003d0 a4 44 20 bb 8a dc 06 be 10 db aa 3d f5 a2 98 3b
       -0.0024454976 -0.13170066 0.08342564 0.004658098
0003e0 57 eb d3 3d 23 de 06 bd 8d 81 cd 3d ab b6 9b 3d
       0.10347622 -0.03292669 0.100344755 0.076032005
0003f0 fe 39 0c be 27 c0 60 3d c1 d2 de 3d c6 47 08 be
       -0.13693997 0.05487075 0.10880042 -0.1330863

model.rnn.bias_ih_l0 f4 [160]
000000 4b a9 24 3e b0 29 ac 3d d6 78 ca bd be 16 ff bc
       0.16080205 0.08406389 -0.09886329 -0.031138774
000010 00 6f 30 bd 1d 0e 41 3d 46 8f 70 bd 43 c9 58 bd
       -0.043074608 0.0471326 -0.058730386 -0.052926313
000020 2e bc d2 bd 27 a7 38 bd eb 70 70 3d 7e a1 c1 bd
       -0.10289799 -0.045081284 0.058701437 -0.0945463
000030 0d cd 90 bd 53 cf 7c bd 87 5a 65 bd 06 51 0c bb
       -0.0707036 -0.061721157 -0.055994537 -0.0021410598
000040 42 88 fa 3d 0e 8e d4 3c 44 6a be bc 99 e4 76 3d
       0.1223302 0.025946643 -0.02324403 0.0602766
000050 5a 1b 7f bd 51 e8 74 bd bd 43 23 3e dc f9 db 3d
       -0.062281944 -0.059791867 0.15943809 0.10741016
000060 f2 58 a0 bd 9c 51 32 3d f6 bf f4 3d b5 b7 01 3e
       -0.07829465 0.04353486 0.11950676 0.12667735
000070 29 76 3b 3d c4 a3 e8 bc cd 68 01 3c 56 da 1b bc
       0.045766983 -0.028398402 0.007898522 -0.009512505
000080 ab a6 17 3d 9f 31 e0 3c 6f a9 f8 bd 69 4a 43 3d
       0.03702418 0.027367411 -0.12141692 0.047678385
000090 c8 a0 7c bd 26 ef e3 3d 8f ed c1 bd be d1 30 be
       -0.06167677 0.11129598 -0.09469139 -0.1726751
0000a0 6d 05 b6 3d 07 df a4 bd 76 c7 8a 3c 16 e7 67 bd
       0.08887754 -0.080503516 0.016940814 -0.056616865
0000b0 81 f6 31 bd 1f 2f 5a bc 19 f6 3b 3d 4d e2 88 3d
       -0.043447975 -0.013316899 0.045888994 0.066837884
0000c0 88 d1 f7 3c 63 f7 a3 bd e4 95 bf bd e6 2a f0 bd
       0.03025128 -0.0800617 -0.09354761 -0.11726932
0000d0 60 23 90 3d 50 a4 06 3e f0 82 12 be 49 22 f5 bc
       0.07037997 0.13148618 -0.14307761 -0.029923575
0000e0 64 11 80 bb 92 3c 10 bd de eb e2 bc c6 c6 a5 3d
       -0.003908323 -0.035214014 -0.02770036 0.08094554
0000f0 61 79 94 3d 53 fb a5 3d 5e 64 d7 bd 50 66 f2 bc
       0.07249714 0.08104577 -0.105171904 -0.029589802
000100 a9 42 19 3b cf ff ec bd 10 9f 3d 3e f3 da 03 be
       0.002338568 -0.11572229 0.18517709 -0.12876491
000110 f2 71 23 be ad ff 42 bc d3 46 74 3b 2c 44 e0 3c
       -0.15961435 -0.011901778 0.003727366 0.027376257
000120 7c cf a8 3d ec fb b8 3d 42 f6 3a 3b 8b 8c 54 3d
       0.082426995 0.09032425 0.0028528129 0.051891845
000130 27 ca 2f 3d da de 34 3c de 14 5a 3e 35 2b b8 bd
       0.042917397 0.01103946 0.21297023 -0.08992616
000140 62 ce bc bd 93 fc bd 3d 27 e4 91 3d ba 26 c5 bc
       -0.09219052 0.0927669 0.07123595 -0.024066318
000150 e4 98 99 bd e8 38 33 3d 20 be b5 3d 0d 49 ae bd
       -0.07499865 0.043755442 0.08874154 -0.08510027
000160 13 06 84 bd f8 6d 83 3c 04 82 d3 3d 90 44 ad bd
       -0.06446471 0.016043648 0.10327533 -0.08460343
000170 bb 3d ad 3b 64 68 fe 3c 20 cd b8 bc 11 87 b4 bd
       0.0052869 0.031055637 -0.022558749 -0.088148244
000180 b2 8c 1d be fe ed f8 3d 3f ca 98 3d 79 af bd 3c
       -0.15385702 0.121547684 0.074604504 0.023154961
000190 ae 9e 20 bd 73 b3 44 bc f8 6c 1c be 05 b1 4e 3d
       -0.03921383 -0.012005675 -0.15275943 0.050461788
0001a0 32 94 f0 3d 95 a3 0f 3d c6 96 52 3d 55 d4 4d 3d
       0.11747016 0.035068113 0.05141332 0.050251324
0001b0 ae 5c 7b bd fc b6 a4 bd a9 09 e2 3d 07 ec 0e be
       -0.061367683 -0.08042714 0.11036999 -0.13957225
0001c0 cb 0f c8 3d cc df fd 3c c4 96 99 3c 50 bb 4c 3c
       0.09768637 0.030990504 0.018748648 0.012495831
0001d0 23 a2 3c 3d 34 7f e0 3d 2b e4 13 3e aa 65 6b 3d
       0.046053063 0.10961762 0.14442508 0.05747
0001e0 23 5e 71 3d 20 36 b5 3d 66 3d 63 3e 46 79 54 bc
       0.058927666 0.08848214 0.2219139 -0.012968367
0001f0 d4 8b 9b bd 16 93 61 3e 52 37 69 3c 4f ba 02 3e
       -0.075950295 0.22028765 0.014234381 0.12766384
000200 86 e2 d7 bc ee 28 d5 3d 85 16 b4 bd 78 59 ca bd
       -0.026353132 0.10408197 -0.08793358 -0.09880346
000210 c2 28 85 bd b2 53 3b 3e 77 93 20 3e 05 58 35 3d
       -0.065019146 0.18293646 0.15681253 0.044273395
000220 d1 07 1a 3e e7 02 5a 3d 7d a1 34 3e ef 46 15 3e
       0.15042044 0.053225424 0.17639728 0.1457784
000230 0f bd 2f 3e bb 8d a1 bc d3 de d0 bc db e4 c9 bd
       0.17161964 -0.019720903 -0.025496876 -0.09858104
000240 1a 5a a7 bc 39 45 dc 3d bd fe 5c 3c 5f 0f 21 3e
       -0.020428706 0.10755391 0.013488469 0.1572852
000250 d5 27 28 3e c3 bb 80 bd 71 66 34 3e ac 01 63 3e
       0.16421445 -0.06285813 0.17617203 0.22168607
000260 38 2f 97 bc 01 15 cf bd 61 1d 2d 3e 3b e5 50 3e
       -0.018455133 -0.10111428 0.16905738 0.20399944
000270 bf 36 14 3e f0 d3 44 3d 23 db 0a 3e 6f 14 78 bc
       0.14474009 0.04805368 0.13560157 -0.0151415905

model.rnn.bias_hh_l0 f4 [160]
000000 48 cd d6 3d 99 b5 0a 3e a0 b1 97 3c 38 fe a7 3d
       0.10488373 0.13545837 0.018517315 0.08202785
000010 70 c3 95 bd 13 7e bf 3d 69 e2 09 be 51 31 00 3e
       -0.07312667 0.093502186 -0.13465275 0.12518813
000020 73 36 3b bc f1 48 bb 3b f3 91 6a 3d 8a a3 01 3e
       -0.011426556 0.0057154824 0.057268094 0.12660041
000030 f3 d5 73 3d a2 c3 49 3d a9 d9 44 3d 1e 9e 89 3d
       0.05953021 0.049258836 0.04805914 0.067196116
000040 08 e4 7c 3c b0 ac 9d bd 98 ac 51 3e 27 2a d7 bc
       0.015435226 -0.07698953 0.20475996 -0.026265217
000050 8b a2 54 bb f7 64 7c 3d 9e 26 26 3e 1f ed 88 bd
       -0.0032445516 0.061619725 0.16225669 -0.06685852
000060 84 ba ca bd 72 4c 06 be 54 48 92 3c f1 9c 08 3e
       -0.09898856 -0.13115099 0.017856754 0.13341118
000070 95 8c 02 bd 16 a4 09 3e 0a 25 2e bd 6e fb 10 3e
       -0.03187235 0.134415 -0.042515792 0.14158413
000080 bd 97 dd bd 1f 17 ff 3d 06 72 09 be 45 09 5c bb
       -0.108199574 0.12455582 -0.13422403 -0.003357486
000090 e2 6f 3e 3e 6e ab a9 3d 68 d3 98 3d 99 ec f4 3c
       0.18597367 0.08284651 0.074621975 0.029897975
0000a0 2e 19 51 3d 6c fa d9 3d a8 dd 18 3e 32 e3 8c 3d
       0.051049404 0.10643467 0.14928305 0.068792716
0000b0 f8 ad 37 3e c2 77 08 3e 82 ed 23 be 86 24 9c 3d
       0.17937458 0.13326934 -0.16008571 0.07624154
0000c0 f1 e4 51 3a ee 2f 8e 3d 92 86 8f 3d 35 50 0f 3e
       0.0008006832 0.069427356 0.07008089 0.1399544
0000d0 12 b6 1c 3d 2e d7 12 bd 81 ff 8a 3d cd a9 26 3e
       0.038259573 -0.035849743 0.06787015 0.16275711
0000e0 cb d5 71 3d 27 b0 ce 3d e7 3e 0a 3e e0 0b 57 3b
       0.05904178 0.10092192 0.13500558 0.0032813475
0000f0 f0 af 09 3e a4 04 6b bd a4 b9 ae 3d 7c eb 0d 3e
       0.13446021 -0.057377473 0.08531502 0.13859361
000100 f6 11 93 bc ae 4d bc bd f8 5f da 3d 15 11 c8 bd
       -0.0179529 -0.09194504 0.10662836 -0.09768883
000110 ce 46 bd 3d 2a f7 5b 3d 78 e2 fa bd 7b 71 ef 3d
       0.092420205 0.05370251 -0.12250227 0.116915666
000120 f2 a5 15 be 07 57 18 3e 8e 77 b5 3d f6 cd fc 3d
       -0.14614084 0.14876948 0.08860694 0.123439714
000130 1d 99 90 3d 9c 42 77 3d 92 97 ae 3d 53 99 5d 3d
       0.07060454 0.060366258 0.085250035 0.0541013
000140 d2 bd ea bd a2 0e 2a 3e 5d 73 24 3e 82 f2 a0 3d
       -0.114619866 0.16607144 0.16059633 0.07858755
000150 b2 0d e4 bd ab 5b 21 bc a1 83 9e bd 03 d0 ef 3d
       -0.11135425 -0.0098485155 -0.0773995 0.11709597
000160 ca ff 0d 3d a6 24 9b bd b3 e6 f2 bd b4 9a ab bd
       0.034667768 -0.075753495 -0.11860409 -0.08379117
000170 7b 29 e0 3d 3c 93 1c bc a0 56 1e be 70 1d 2a 3d
       0.10945412 -0.009556588 -0.15462732 0.04153198
000180 f7 c5 9d 3d ac d3 34 be bd 47 21 3e 49 41 b2 3d
       0.077037744 -0.17658871 0.15750022 0.087038584
000190 66 e8 60 bd f3 c1 91 3d a3 a3 30 be cb 11 44 3d
       -0.054909132 0.07117071 -0.17249922 0.04786853
0001a0 5f 86 c8 bc 30 07 ae bd 7f eb 9f 3d d9 a3 55 bd
       -0.024478136 -0.08497465 0.07808589 -0.05215821
0001b0 84 7d 66 bd c2 76 13 3e 12 02 97 3d 04 be 04 be
       -0.056272045 0.14400771 0.07373442 -0.1296311
0001c0 28 27 76 3d 42 94 cb bd 50 37 da bd b5 e6 00 be
       0.060095936 -0.09940387 -0.10655081 -0.12588008
0001d0 1d 1b 25 3c 10 6e b4 bd af 7e 09 bd f6 fc 0f 3d
       0.010077265 -0.08810055 -0.03356808 0.03515335
0001e0 95 04 5d 3e 15 75 3c 3e d0 13 87 3c 6f 2c ed 3d
       0.21583779 0.18404038 0.01648894 0.11580741
0001f0 f5 c8 4e 3d c1 70 92 3d ed 77 92 bd ae d9 ce 3d
       0.050484616 0.07150412 -0.0715178 0.10100113
000200 a1 16 f6 3d 43 7f 5e bd 47 85 83 bd bc dd bf 3d
       0.12016035 -0.054320585 -0.06421905 0.09368464
000210 b8 bb 87 bd c4 ca 9c 3d 4f b0 01 3e 13 de 62 bd
       -0.066276014 0.07655862 0.12664913 -0.055387568
000220 19 e5 08 bd 90 11 16 3e 9e 18 cb 3c 97 7b 47 bd
       -0.03342161 0.14655137 0.024792012 -0.04870185
000230 6f 3a cd 3d 13 7d 7b 3d 26 f0 96 bd af 11 20 3e
       0.10020911 0.061398577 -0.073700234 0.15631746
000240 c5 51 34 3e ef 54 ee 3d 6e 59 64 bd cd 3c 07 bd
       0.17609318 0.116372935 -0.05574935 -0.03301697
000250 0a 95 f6 3d 06 fe fb 3d f2 dd 93 bd db 7f 67 3d
       0.12040146 0.123043105 -0.07220067 0.056518417
000260 16 88 97 bd 60 91 0f 3e 89 65 a3 3d f2 0f 56 3e
       -0.07399003 0.140203 0.07978351 0.2090452
000270 28 11 55 3e 3b af fa bd 1c 2d 2d 3e 29 28 07 be
       0.20807326 -0.12240454 0.16911739 -0.13198914

model.rnn.weight_ih_l1 f4 [160, 40]
000000 57 d9 27 3e ee ce aa 3d d2 e6 b8 3d 3d 4d a3 bd
       0.16391502 0.0834025 0.090284005 -0.079737164
000010 5a 22 60 bd c9 7b 0a be 7b 07 34 3e c2 b5 f0 bd
       -0.05472026 -0.13523783 0.17580979 -0.117534176
000020 66 f5 12 3e 44 26 ea bc e4 5d 27 3d 8f 86 c6 3c
       0.14351425 -0.0285827 0.040861025 0.024234084
000030 af cc cf bd 34 0e 3f be 09 9f cb 3d fe 3a 8e 3d
       -0.10146462 -0.18657762 0.09942443 0.069448456
000040 ea f1 14 3e 7c 17 30 bd f6 3a f7 3d e0 38 a7 bd
       0.14545408 -0.042991146 0.12071793 -0.08165145
000050 9c b1 72 bb 0e a8 a5 3c 26 db fc 3c 2c ab d2 bc
       -0.0037032133 0.020221736 0.030866217 -0.025716387
000060 98 eb 44 be 3c ec 02 3e 99 01 12 3e 72 cd ec bd
       -0.19230497 0.12785429 0.14258422 -0.11562623
000070 ce b9 82 3d 17 d4 2e 3c a2 2e fb 3d 0f ab 6c bd
       0.06383096 0.010670683 0.12264754 -0.05778032
000080 3b 31 53 3d 0f 35 42 3e d9 2c 2c be 47 62 cd 3d
       0.05156062 0.18965553 -0.16813983 0.100285105
000090 85 24 c6 bc b0 08 05 3c 81 8a aa bd e2 74 87 3c
       -0.024187336 0.008119747 -0.08327199 0.016535226
0000a0 81 2c 65 3d 4e a8 8c bd c4 14 a7 3a 73 97 66 bd
       0.055950645 -0.06868039 0.0012747278 -0.056296777
0000b0 ae a3 02 3d 61 99 e4 3d 0b e6 fe 3d 03 74 3e bd
       0.03189438 0.11162067 0.12446221 -0.046497356
0000c0 d5 6f b8 3c 2b 80 21 3d 22 73 7a 3d ca 4b 95 bc
       0.022514263 0.03942887 0.061144955 -0.018224616
0000d0 47 08 17 bc 4b 68 a6 3d 77 6e ed 3c 03 25 26 3e
       -0.009218282 0.08125361 0.028983338 0.16225056
0000e0 f3 3c d0 3d 54 45 dc bd 4f d4 68 bd a5 d7 38 3d
       0.10167875 -0.10755411 -0.0568431 0.04512753
0000f0 9f 9a 8d 3d 42 f0 aa bd 48 13 87 bd e6 ee a8 3d
       0.06914257 -0.08346607 -0.065954745 0.08248691
000100 04 c8 06 3d 72 c6 72 bd 57 77 e4 bd ab db 18 3c
       0.032905594 -0.059271283 -0.11155575 0.009329717
000110 7c 34 3d 3c e1 13 20 3d 99 b6 44 3d da 81 da bd
       0.011548158 0.039081458 0.0480257 -0.106692985
000120 19 b2 09 be da be 04 3e e8 4c 4f 3d 7b 6d b5 bd
       -0.13446845 0.12963429 0.050610453 -0.08858772
000130 a4 78 d4 3d e4 c6 cc bd 24 fe 87 bc 9e 63 b9 3d
       0.10374573 -0.09998873 -0.016600676 0.090522036
000140 ef be dc 3d 18 b9 9f 3d ca 90 6f bd 3e 3d 17 bd
       0.10778605 0.07798976 -0.05848769 -0.03692364
000150 d4 78 1d 3e 95 00 b8 bd f7 53 d7 bd 3a 9e 36 be
       0.15378124 -0.08984486 -0.10514062 -0.17833796
000160 97 33 3f 3d 78 4c ad 3d bf 50 d5 3d 95 b0 17 3e
       0.04668006 0.08461851 0.10415792 0.14813454
000170 bd 46 1d be 7e 5c 8e 3d 8d dc 4e bd f8 0a 4f bc
       -0.15359016 0.06951235 -0.050503302 -0.0126368925
000180 67 04 a9 ba be 42 34 bd 3e ad 00 3d 5b af 3a 3e
       -0.0012894989 -0.044008963 0.031415217 0.18230955
000190 bc 1e 13 bc 05 46 d9 bb 50 07 e3 3d 11 c4 60 bd
       -0.008979496 -0.0066306614 0.11085379 -0.054874483
0001a0 6d 30 3c 3d f0 d5 fc bc a6 57 37 be 45 bd 94 3d
       0.04594462 -0.030863732 -0.17904529 0.07262663
0001b0 26 aa 2e 3e 02 91 c6 3d 44 8b 14 be aa 7b 44 be
       0.17057094 0.09695627 -0.1450625 -0.19187799
0001c0 d4 c9 d3 bc f5 5b 45 be 28 cd 51 3d 64 11 2f be
       -0.025853075 -0.1927336 0.051221043 -0.17096478
0001d0 2c 5c ba bb 29 c2 33 3d 95 0f 54 3d 39 09 50 be
       -0.0056872573 0.043886337 0.051772673 -0.20316018
0001e0 f6 da 42 bb b1 33 34 3e 59 ab df bc 30 e7 8d bd
       -0.0029732562 0.17597844 -0.027303385 -0.06928861
0001f0 dc e0 42 bc b4 8d 9c 3c e9 75 77 bc fe 63 f0 3d
       -0.011894431 0.019110538 -0.015103796 0.11737822
000200 12 7d da bd 9e f5 2e be 4c 72 fa 3d d7 93 a1 3d
       -0.106683865 -0.17085883 0.12228832 0.07889526
000210 22 3d 1e be 16 a0 8c 3c 7a 1d 25 3d ca f3 a4 bd
       -0.15453008 0.017166179 0.040311314 -0.080543116
000220 ee 08 2b be 9a 2b b4 bd 33 3b c8 bd f4 75 78 bd
       -0.16702625 -0.08797379 -0.09776916 -0.060659364
000230 f5 e2 6b 3d cd 9e 4a bd ee 0a c5 3c 71 10 aa bd
       0.05758949 -0.04946785 0.024053063 -0.08303917
000240 c3 09 93 bd d1 f2 5a be 3a e9 88 bc 61 95 ab 3d
       -0.07179596 -0.2138169 -0.016712774 0.08378101
000250 46 e5 ab 3d 10 ce 4b 3d b2 c9 92 3d dc d3 26 be
       0.0839334 0.049757063 0.071673766 -0.16291755
000260 1e 72 23 3d d6 60 e4 3d f0 35 f2 bc 0d 5b 10 be
       0.039903753 0.111512825 -0.029566735 -0.14097233
000270 07 5f 48 bd 39 b3 39 bd 79 bd bd bc 7b 3a 3a 3e
       -0.04891875 -0.045336936 -0.023161637 0.18186371
000280 66 b2 97 bd 6d 76 84 3d bb e6 cc 3b bf d6 bf 3c
       -0.07407074 0.064679004 0.006253091 0.023417829
000290 74 cf 56 bd a6 9e 40 bd cd d9 81 bd 1b 26 ff ba
       -0.052443936 -0.0470263 -0.0634037 -0.0019466312
0002a0 e8 98 0b be 80 0a 47 be d2 99 0a 3e b8 20 1a bd
       -0.13632548 -0.19437599 0.1353524 -0.03762886
0002b0 78 a6 5d bd 45 b2 40 3e 1a 28 d0 bb 22 75 84 3e
       -0.054113835 0.18818004 -0.0063524367 0.25870615
0002c0 09 bf d2 3d 7f 98 d9 bd ab a9 46 bc 09 bb 9c 3d
       0.10290343 -0.106247894 -0.012125413 0.076528616
0002d0 79 38 17 3e d9 8e cb 3c a0 b8 a6 bc 5b 0d ba 3d
       0.14767636 0.024848389 -0.020351708 0.090845786
0002e0 61 79 ec 3d e1 97 0a bd cf 5d 85 3d 4f e3 bb bd
       0.11546589 -0.03383625 0.06512033 -0.09174215
0002f0 54 a8 64 3d a5 c6 04 bd cd 3d 97 3d 4b c1 f4 bd
       0.055824593 -0.032416005 0.073848344 -0.1195093
000300 40 c5 23 be 55 23 b6 bd 40 86 0f bd 56 58 14 be
       -0.15993214 -0.08893458 -0.03504014 -0.14486822
000310 9e cf 0b 3b ca 49 39 3e 1e fd 69 3d 56 26 60 be
       0.0021333466 0.18094555 0.057126157 -0.21889624
000320 f1 d2 84 bd 74 10 8f bd c9 51 1d 3e f3 1c b9 bd
       -0.064855464 -0.0698556 0.1536323 -0.09038725
000330 18 95 a4 3d 73 16 3d bd 88 09 37 3d 66 4f f9 bc
       0.0803625 -0.046163987 0.044686824 -0.030433368
000340 48 14 17 bd 2f 8d 67 bc 54 8c 08 3e 34 76 fb 3d
       -0.036884576 -0.014132782 0.13334781 0.12278405
000350 f4 84 87 bd 8a 62 c8 3d 68 6f 71 bd f6 7c 19 be
       -0.06617156 0.0978442 -0.058944136 -0.14989075
000360 4a 96 5d bc 8c 9d b8 3b f6 eb e4 bc 2a bb 40 3a
       -0.013524601 0.0056340154 -0.027944546 0.00073521084
000370 45 ff 79 bd 34 32 30 3d ad 37 d5 3d 73 95 b1 bd
       -0.06103446 0.043016627 0.1041101 -0.08671083
000380 8e 3e d8 3c 48 a6 8b bd d0 46 07 3e 3a 47 ac bd
       0.026397016 -0.06818825 0.13210607 -0.08412023
000390 56 df 94 bd 72 db 55 3d d8 49 b5 3d 36 18 8c 3d
       -0.072691604 0.052211232 0.08851975 0.06840555
0003a0 95 b9 67 bd f7 ca 14 3e ee 69 3b 3c 9b 08 2f be
       -0.05657347 0.1453055 0.01143883 -0.17093126
0003b0 24 56 bd 3c 70 17 92 3b 14 a6 7a 3c 38 37 d3 3d
       0.023112364 0.0044583604 0.015298385 0.103132665
0003c0 f9 b7 f3 3d f3 cc 89 bd cf 81 32 bb ef f5 37 3e
       0.119003244 -0.06728544 -0.0027238016 0.1796491
0003d0 02 75 5e 3d 11 bd a6 bc f9 10 5a 3e f7 99 d0 3d
       0.054310806 -0.020353826 0.21295537 0.101856165
0003e0 0c 5c 49 bd e5 a0 a8 3d e4 e3 b9 bd 2a 4c 3a bd
       -0.04916005 0.08233813 -0.0907667 -0.045482792
0003f0 d3 5d 0b be 5a 0c 9e 3d 8f a6 98 bd 8e 77 06 3e
       -0.1361001 0.077171996 -0.074536435 0.13131544

model.rnn.weight_hh_l1 f4 [160, 40]
000000 f1 aa 9c bd 33 f8 e6 3d 71 3a 0c be f6 67 b1 bc
       -0.07649792 0.11277809 -0.13694169 -0.021656018
000010 6d e3 4b 3e 59 b4 53 3d 4a a0 5a bc d1 74 e4 bd
       0.19910975 0.051685665 -0.01334388 -0.111550935
000020 55 8c 98 bd 84 27 83 bd 62 8e de bd d6 1b 97 bd
       -0.07448641 -0.064040214 -0.10867001 -0.07378356
000030 24 8d c3 bd 00 bd 3a 3d 61 ee 14 3e b4 25 6e 3d
       -0.09548405 0.0455904 0.1454406 0.058141425
000040 b6 72 a3 bd a5 ef 7e bd f5 3d 0e 3e cd 80 c1 bd
       -0.07980864 -0.06224026 0.13890822 -0.09448395
000050 74 03 46 3d 41 3d b6 bd e1 38 36 be 87 1a 4b 3d
       0.048343137 -0.08898402 -0.17795135 0.049585845
000060 0f 80 6f 3d fa 10 00 3e 9f d2 a2 3d 95 00 a0 bd
       0.058471736 0.12506476 0.07950329 -0.07812611
000070 d4 ba f8 bd 1b a3 bb bd 1d 19 b7 3d 51 fa 0b be
       -0.1214501 -0.09161969 0.08940337 -0.13669707
000080 c8 1a 68 3d 18 8e 71 3d fb b8 25 3e af ab e4 bd
       0.056666166 0.0589734 0.16183846 -0.111655585
000090 f5 ed 42 be 58 b9 60 bd 8f 27 7b 3c 31 57 82 3d
       -0.19036086 -0.054864258 0.015329256 0.06364287
0000a0 3a dc 0f bb e2 5f 95 3d 1b fd e2 3d bd 02 c2 3d
       -0.0021951334 0.07293679 0.11083432 0.094731785
0000b0 e5 77 f1 bc fb f4 97 3b 6c 97 11 bd 22 0a 2a bc
       -0.029476115 0.0046373582 -0.035544798 -0.010378392
0000c0 f7 17 0c 3e 29 91 3a be d5 74 f0 bd 0e 3c 7f 3a
       0.13681017 -0.18219437 -0.11741034 0.0009736427
0000d0 de 87 4e 3d e6 05 b7 bd 01 b7 15 3e c8 5e 1a 3e
       0.05042254 -0.08936672 0.14620592 0.15075219
0000e0 bb 80 90 3d 30 cd 57 3e f5 d6 88 bb 7e d5 0d bd
       0.070558034 0.21074367 -0.0041760155 -0.03462743
0000f0 42 61 5b be 17 b9 af bd 9d 85 f0 3d f5 98 85 bd
       -0.2142382 -0.08580225 0.11744235 -0.06523315
000100 98 94 6c bd 39 78 18 3e 06 33 88 3d 2f 61 cb 3d
       -0.057758898 0.14889611 0.06650357 0.09930646
000110 0d 80 50 3c 72 41 77 bd 09 6d 9e 3d 56 8a c9 3d
       0.012725842 -0.060365148 0.077356406 0.098408386
000120 d2 fe a3 bd 22 3a 57 3c 69 8c 11 be b3 2b 3b 3c
       -0.080075875 0.013136419 -0.14213718 0.011423993
000130 2d 2b ef bc 04 1d 1d 3e 33 52 f2 bd 29 66 64 3d
       -0.029195393 0.153431 -0.118320845 0.05576149
000140 b2 84 47 bc 84 4f b8 3d 02 d5 ff bc 23 60 0e 3e
       -0.012177633 0.089995414 -0.0312295 0.13903861
000150 a4 55 20 be 73 54 4f be df 8c 93 3d 1e fa 61 3c
       -0.1565767 -0.20247059 0.072046034 0.013792543
000160 7f 6a e0 bb a0 a7 d9 bc 17 a2 11 be 98 f2 16 bd
       -0.006848633 -0.026569188 -0.14221989 -0.03685245
000170 1f 6b 21 3e 22 29 2e 3d 76 25 d5 3d b7 0b ed bc
       0.1576352 0.042519696 0.10407536 -0.02893625
000180 6b 4b 33 be 5d bb c5 3d 48 5a ca 3d 41 c0 8d 3c
       -0.17509238 0.09654877 0.09880501 0.017303588
000190 e5 ff d3 3d f2 4e 16 bd 3d 8b 22 3e 34 19 1f 3d
       0.103515424 -0.036696382 0.15873428 0.038842395
0001a0 78 ab 05 bc 3e a5 94 3d b9 0b 18 3e 91 7b 60 3d
       -0.008158557 0.0725808 0.14848222 0.054805342
0001b0 f9 23 fe 3d c4 e6 44 be d8 56 b3 bd 75 57 e9 3d
       0.12409205 -0.19228655 -0.087567985 0.11393634
0001c0 a9 34 1e be 7f 57 ae bd 48 3a 18 3c 8b e1 3b 3e
       -0.15449776 -0.08512782 0.009291239 0.18347757
0001d0 a7 a8 5e bc cf cf c3 3d 5d a2 41 bd 94 b7 e5 3d
       -0.013590015 0.09561121 -0.047273982 0.112166554
0001e0 26 99 44 bd 3e c3 1d 3b 8f 0e dc bd 66 96 70 3d
       -0.047997616 0.0024072672 -0.10744964 0.05873718
0001f0 da ba c5 3d 70 2d 07 3e e0 ea 23 3e 1a 70 d9 bd
       0.0965478 0.13200927 0.16007566 -0.10617085
000200 75 42 37 be 9a da 22 3d ae b2 9e bd fc ef 09 bc
       -0.17896445 0.039759256 -0.07748924 -0.008419033
000210 a2 7b 12 3e 98 e6 20 3c 93 b1 a0 bd a8 2e e6 bd
       0.14304975 0.009820603 -0.078463696 -0.11239368
000220 68 36 a8 bd 03 cd 16 3d ee b7 47 3d 54 57 16 be
       -0.08213502 0.03681661 0.048759393 -0.1468175
000230 ac 4e 30 be 91 eb ab 3b b3 b4 0d bd d9 7f 0c 3e
       -0.17217511 0.0052465876 -0.034596156 0.13720645
000240 83 b9 1c 3d 5c e1 ea bd d7 79 87 bd 48 9e ba 3d
       0.038262855 -0.11468765 -0.06615036 0.09112221
000250 ba 7a fe 3d 33 d5 12 be 4b 31 bc 3d 2b ab 18 bc
       0.12425752 -0.14339142 0.091890894 -0.009318153
000260 a7 a4 5a 3d f5 fe 93 3d 56 e0 a6 bd 12 1e 30 3d
       0.05337968 0.072263636 -0.081482574 0.042997427
000270 c5 bd fa 3d ba 17 9d bd ae 4f c1 3c c6 60 c3 bd
       0.12243227 -0.07670541 0.023597565 -0.095399424
000280 bb 40 ff 3d 96 9a 4c be 24 01 d6 bd fd 53 99 3d
       0.12463518 -0.19980845 -0.10449436 0.074867226
000290 ed d8 9f 3d 1d 55 04 3e 18 72 2f 3e 97 5f 22 3e
       0.07805047 0.12923093 0.17133367 0.15856777
0002a0 88 1e ff bc 59 c6 b9 3d 21 e2 04 be 05 ca 23 3d
       -0.031142488 0.09071035 -0.12976886 0.039987583
0002b0 40 9d 9b bc eb 3d 15 bd 71 4c ba bb 44 ca 03 be
       -0.018995881 -0.036436003 -0.005685382 -0.12870127
0002c0 f6 5b 04 bd 11 cd 1b 3e 87 18 8f bd a5 8b 28 3e
       -0.032314263 0.15214945 -0.069871 0.1645952
0002d0 b2 33 c3 3d c8 3b 7d 3c 78 66 60 bd 13 75 37 be
       0.095313445 0.0154561475 -0.05478522 -0.17915754
0002e0 8d 33 9e 3d ca d7 7a 3c e8 2f df bc eb 4a 5c 3e
       0.07724676 0.015310237 -0.027244523 0.21512954
0002f0 df 11 83 bd 96 b2 17 3d 1c ed 9e bd 33 a1 c7 bc
       -0.06399893 0.037035547 -0.07760069 -0.024368858
000300 ef d7 51 3d 9e ad 01 bd 27 1e 03 be ec 99 64 3e
       0.05123132 -0.031659715 -0.12804471 0.22324342
000310 ab f6 61 bc d2 dc 32 bd 35 26 8a 3d 62 13 41 bd
       -0.01379172 -0.043667622 0.06745569 -0.047137626
000320 d4 58 3b 3c d6 cd b7 3c da 0f 35 3e 66 2b 46 3e
       0.0114347525 0.022437017 0.17681828 0.19352493
000330 53 5e 9e bc ac 78 17 bd f4 94 43 bd 85 ca d9 bd
       -0.019332087 -0.036980316 -0.047749475 -0.10634331
000340 33 01 63 3d 97 c7 63 bd 7a 7a 2e 3e c6 c6 41 3c
       0.055421066 -0.055610266 0.17038909 0.011827176
000350 a9 56 bd 3d 48 92 ef 3d 8d 06 f7 bc d8 e8 f2 bd
       0.09245045 0.11697823 -0.03015449 -0.11860818
000360 56 ee 96 3d a2 b2 b5 3c 40 e5 93 bc 12 66 55 be
       0.07369678 0.022179905 -0.01805365 -0.20839718
000370 f9 77 0f 3d e3 49 15 be 97 82 17 3d cd 2b 25 3e
       0.035026524 -0.14578967 0.036989775 0.1612999
000380 b6 3b 08 3e 56 ac 1c 3e 97 94 68 3d 10 ef 05 be
       0.13304028 0.15300116 0.05678233 -0.13079476
000390 c9 8e 99 3d 4c 3c b4 bd 8b d5 e5 bd dc eb 97 bd
       0.07497937 -0.08800563 -0.11222371 -0.074180335
0003a0 f7 42 3f 3d f7 61 03 3e 7f 3a 97 bc 62 20 f4 bd
       0.046694722 0.1283034 -0.01846051 -0.11920239
0003b0 b3 56 25 3e 1f 3e 65 3d c9 71 5a 3c 4a 2b 01 3e
       0.16146354 0.055967446 0.013332793 0.1261417
0003c0 6e b0 cc bd 21 8a 11 be a4 40 0f 3e c2 fa 80 3d
       -0.09994589 -0.14212848 0.13989502 0.06297828
0003d0 55 17 e2 bb 7f f2 c8 3d 5d f5 af 3d e0 73 be bc
       -0.006899754 0.098118775 0.08591721 -0.023248613
0003e0 e7 2e c8 3c 14 c0 29 bd 76 31 41 be ce 2d f7 3d
       0.024436427 -0.041442946 -0.18866524 0.120692834
0003f0 9f db f1 bd a4 c3 d0 3c 0a d4 32 bd a5 fb 02 be
       -0.118094675 0.025483914 -0.043659247 -0.12791307

model.rnn.bias_ih_l1 f4 [160]
000000 54 29 17 be c6 4b 67 bd cc cf 5a 3d 25 13 45 3e
       -0.14761859 -0.056468748 0.053420827 0.19245584
000010 2a c5 6e bd 15 52 00 3e fd 93 ec 3d ae ee c3 3c
       -0.0582935 0.12531312 0.11551664 0.023917522
000020 4b 42 3d 3e 68 98 9e 3d d2 04 0c 3c 9d 9a 01 3e
       0.1848232 0.07743913 0.008546071 0.12656637
000030 6a 51 a1 3d b5 ed 70 3d 55 9f fa bd 89 88 3c 3e
       0.078768566 0.058820445 -0.122374214 0.18411459
000040 7b 19 2b bd b5 05 0b 39 e0 d6 bf bd e1 98 fd 3d
       -0.041772347 0.00013258199 -0.09367156 0.12382675
000050 3d d3 a3 3d 3c f8 84 3c 6c d2 65 3e 43 ae ad bd
       0.07999275 0.016231649 0.22443551 -0.084805034
000060 4c 8b 1f 3e e8 29 4b 3e ce cd ff 3c 1f 9a e7 3d
       0.15580481 0.19840205 0.031226065 0.11308693
000070 de 5a 9e bd 23 f5 bb bb 42 cc 8c bd 22 a2 0d be
       -0.07732175 -0.0057360097 -0.068748966 -0.1383138
000080 4d d6 5b 3e 2d fc af bd 2c 47 82 3d 48 fa 31 bd
       0.21468468 -0.085930206 0.06361231 -0.043451577
000090 dd 5d 2c 3e db 6d 91 bd 71 2f 2d bd fe fc 4d 3e
       0.16832681 -0.071010314 -0.04228157 0.2011604
0000a0 53 2b d0 3c 27 e0 ea 3d d8 49 93 bd 85 a5 df 3d
       0.025411284 0.11468535 -0.07191819 0.10920242
0000b0 2c ac fe 3c 9b fd 08 3e f7 04 00 bd ff c9 c0 3c
       0.031087957 0.13377993 -0.031254735 0.02353382
0000c0 b9 1b d2 bd df a7 d0 3d 29 3e ae bd 0a 69 00 be
       -0.10259194 0.10188269 -0.0850795 -0.12540069
0000d0 cc 94 ab bd 84 97 b2 3d 50 b2 cf 3d 65 d6 d0 3d
       -0.0837799 0.087203056 0.10141432 0.101971425
0000e0 70 4c 16 3e 8b 60 3b 3e c2 52 cd 3d 46 6c de 3b
       0.14677596 0.18298547 0.100255504 0.0067878095
0000f0 90 e3 68 bd 6d 95 bc 3d 0a 43 80 3c df 74 f1 3d
       -0.056857646 0.09208188 0.015656967 0.117898695
000100 5e 20 89 bd 14 2d b4 bc 6f c2 0c 3e 94 b0 78 3d
       -0.06695627 -0.021994151 0.13746046 0.060715273
000110 96 76 e4 bd ec a1 9a 3c e1 71 3e bd 9d 64 1c 3d
       -0.11155431 0.018876038 -0.046495322 0.03818189
000120 e5 a0 40 3e 64 73 05 3e b2 ef 1e bc 55 e9 f4 3d
       0.18811376 0.130323 -0.0097007025 0.11958567
000130 6f f0 9a 3d 34 fa 46 bd ea 70 2c 3e 16 19 35 3e
       0.0756539 -0.048578456 0.16839948 0.17685351
000140 31 67 db 3d b4 c5 80 bd 8e 56 f2 3d d7 b4 8a 3d
       0.107130416 -0.06287709 0.11832915 0.06772774
000150 30 ed c6 bd 6e bb c1 3d 1f 39 94 bd 84 ec 08 be
       -0.09713209 0.094595775 -0.072374575 -0.13371474
000160 24 d7 89 bc 61 fa 03 be 14 3d 23 bd 05 c3 9d 3d
       -0.01682622 -0.1288848 -0.03985317 0.07703213
000170 45 f0 b9 bd 35 f7 a2 bd 9b fb c9 3b f7 50 a7 bd
       -0.09079031 -0.07957307 0.006164027 -0.0816974
000180 83 e7 de 3d 61 c2 c9 3d d9 ba f3 3d 04 34 a5 bd
       0.10884001 0.09851528 0.11900873 -0.08066562
000190 6e ec 28 bd bf 7c 09 bd b6 6e cc 3d ac c9 2e bc
       -0.041241102 -0.033566233 0.09982054 -0.0106681995
0001a0 70 fc 69 3d db fc 02 be c2 8e d4 3d 02 64 27 bd
       0.05712551 -0.12791769 0.103787914 -0.04086686
0001b0 ce 44 ef bd f4 af 06 3e a5 65 65 3d 4c 1c a9 bd
       -0.11683045 0.13153058 0.05600514 -0.0825735
0001c0 83 a9 48 bd ce a5 58 bd f2 56 42 bd b9 95 86 3b
       -0.048989784 -0.0528925 -0.0474462 0.004107204
0001d0 41 99 2c 3e 1c 89 ce 3d 9b e0 c9 bd 8e 68 66 bd
       0.16855337 0.10084745 -0.09857293 -0.056252055
0001e0 2d bc 71 3b f7 a3 52 3d 59 2a 16 3c 40 e0 87 bd
       0.0036885843 0.0514259 0.00916537 -0.06634569
0001f0 e4 e7 64 bd 39 36 f7 3d ef 54 f5 3d 3f e7 3d bd
       -0.05588521 0.12070889 0.119790904 -0.04636311
000200 9f e9 89 3d 9f ba 4d 3e 12 34 5d 3c 9c 62 13 3d
       0.06734013 0.20090722 0.013501184 0.035982713
000210 2c 6e 54 3e 9d e1 09 3e 96 10 14 3e 99 f3 ac bd
       0.20745152 0.13464971 0.14459452 -0.084449
000220 69 d9 2e 3e 71 c7 07 3e 60 bb c6 3d 94 d4 e4 bb
       0.17075123 0.13259675 0.09703708 -0.006983349
000230 7a 80 0a 3e 17 68 0a 3e d8 9d 17 3e a5 2e 91 3b
       0.13525572 0.1351627 0.14806306 0.0044306093
000240 b7 33 96 3d cf ef 54 3e 16 8f 53 bb 07 77 50 3c
       0.073340826 0.20794605 -0.003228133 0.012723691
000250 56 57 c0 bd 42 be be 3d 95 a3 c7 bd 67 0f f6 3d
       -0.09391658 0.093136325 -0.09747998 0.120146565
000260 41 14 b2 3d 17 c5 85 3d d6 2f 5e 3e 81 d1 17 3e
       0.086952694 0.065317325 0.21697935 0.14826013
000270 23 02 18 3d 9d 67 9d bd 0f e2 7f bd 14 cd 1b bd
       0.037111413 -0.07685778 -0.062471446 -0.038037375

model.rnn.bias_hh_l1 f4 [160]
000000 1d dd 5f bd 6b 29 e7 3c 2a c6 d5 bd 4d 22 07 3e
       -0.05465423 0.028217992 -0.104381874 0.13196678
000010 6a 34 99 bc 08 2e 0c 3e 0c 8b 28 3e c1 e1 b9 bd
       -0.01870175 0.13689435 0.16459292 -0.09076262
000020 bc 4a a2 bd 6d 4c 85 3d 15 80 de 3d 2e e1 f5 3d
       -0.07924411 0.06508718 0.108642735 0.1200584
000030 cd f3 18 bd 6e 6e 22 3e 9c 66 ab 3d 85 00 2c bd
       -0.03734188 0.15862438 0.083691806 -0.041992683
000040 38 b2 3b bd 76 60 3b 3e 7c 11 ea bb 2d f7 e4 bd
       -0.04582426 0.18298516 -0.0071431976 -0.111799575
000050 c1 03 68 3d cf 35 2e bd 81 1e 1d bd 25 ce ff 3d
       0.056644205 -0.042531785 -0.03835917 0.12490491
000060 f0 d5 8b 3b d9 1e 6f bd eb 7c b9 bd c9 30 f0 3d
       0.0042674467 -0.058379028 -0.09057029 0.11728055
000070 d0 b3 21 be 44 92 fa 3d 86 8a 14 3e d5 87 08 3e
       -0.1579125 0.12234929 0.14505967 0.13333066
000080 d0 75 41 bd de 45 88 bc be 3b 4c bd 4a b9 38 3e
       -0.047231495 -0.016634878 -0.049861662 0.18039432
000090 5c da 3b bd 86 fa 36 3e bb cf f7 3d 00 a0 bd 3c
       -0.04586254 0.17869005 0.12100168 0.023147583
0000a0 7f a6 98 3c bb 57 9a bd b4 75 b1 bd 41 29 43 3e
       0.018634079 -0.075362645 -0.08665028 0.19058706
0000b0 74 49 fa 3d c1 b1 a0 3c 56 b4 35 3d c4 af de bd
       0.12221041 0.01961601 0.044361435 -0.108733684
0000c0 fa 6d 6b 3c ea 2d 8a bd 1f e5 00 be 15 b4 2e 3e
       0.014369482 -0.06747039 -0.12587403 0.17060883
0000d0 9d c8 86 3d f0 4a b6 bc ba ec f0 bd 02 29 01 bd
       0.06581233 -0.02225253 -0.11763902 -0.03153325
0000e0 0c d8 a2 3d 17 a9 48 3e cf 27 0c bd ed 9a e6 3d
       0.07951364 0.19595753 -0.034217652 0.112600185
0000f0 85 48 1e bd 63 e6 c0 3d 1b 63 2d 3d 97 76 46 3d
       -0.03864338 0.09418943 0.042330842 0.04845294
000100 39 f5 a5 3d 3a 06 75 3c f6 48 fb bd 73 d0 57 3d
       0.08103413 0.014955098 -0.122697756 0.052689027
000110 5d 64 da 3d 60 5d b2 3d 29 ec 15 3e 7a 92 b7 39
       0.10663674 0.08709216 0.14640869 0.00035013614
000120 f9 09 f3 3d 3d b6 43 3e 9a 5e 04 be 58 88 02 bd
       0.118671365 0.19112487 -0.12926713 -0.03186831
000130 85 38 3c 3e a6 58 26 3d 4c 67 a0 bd 6b a0 87 3b
       0.18380935 0.040611885 -0.07832202 0.0041389964
000140 e6 78 5a bc 24 ee f4 3d 67 2c 98 3d 42 ee 13 3e
       -0.0133344885 0.11959484 0.07430344 0.14446357
000150 49 cc 96 bd 79 c3 cf 3a 59 4a aa bd 93 92 c0 bd
       -0.07363183 0.0015851102 -0.08314962 -0.09402957
000160 ab 76 71 3d 1a 92 af 3d e7 f3 9a 3d 85 69 b9 3d
       0.05895106 0.085727885 0.07566052 0.090533294
000170 09 09 97 bd e7 37 49 3c 90 18 ea 3c b5 50 bb 3b
       -0.0737477 0.012281395 0.028576165 0.005716408
000180 5a 60 29 be 17 59 0b 3e c6 0a 1e be 82 13 4c be
       -0.16540661 0.13608204 -0.15433797 -0.19929317
000190 6e b0 09 be e8 28 45 be ea 4a d5 3b bf 03 f9 3d
       -0.13446209 -0.19253886 0.0065091746 0.12158918
0001a0 27 07 ea 3d 66 d0 be 3d ee f8 c6 3d 3d b1 d8 3b
       0.114271455 0.093170926 0.09715448 0.0066129253
0001b0 17 2a f3 3c 3a ea e4 3d eb 4d 4c 3c a9 a4 54 bd
       0.029683156 0.11177488 0.012469749 -0.051914845
0001c0 5f 27 3c be 09 c1 b9 3d 7a 9b 6f bd 1f ad 04 3e
       -0.18374394 0.09070022 -0.058497883 0.12956665
0001d0 31 20 07 3d 07 d1 10 3d 1c 68 cc bd eb 3d ba 3c
       0.032989684 0.035355594 -0.09980795 0.022734603
0001e0 e6 3d 53 bd b3 ea 5d bc 41 b0 e6 3d e0 c9 20 bc
       -0.051572703 -0.013544726 0.112640865 -0.009813756
0001f0 1c 67 e0 3d ce c1 58 bd 5f 40 ad bb 4b a1 42 bd
       0.109571666 -0.0529192 -0.0052872146 -0.047517102
000200 0f 59 9f 3d 09 ed 75 bc 95 e9 40 3c 69 76 29 3e
       0.077806585 -0.015010127 0.01177444 0.16549076
000210 89 2b 8a 3d 15 1a 24 bc 9c 99 cf bd 3b 90 3a 3e
       0.06746585 -0.010015984 -0.101367205 0.18219082
000220 73 67 cc 3d c3 9f 0c 3e 43 fc 56 bd 0d 92 c7 3d
       0.09980669 0.1373282 -0.05248667 0.09744654
000230 f6 ae ce 3d 2a eb d2 3d a3 cd af bd 8f 65 30 3c
       0.10091965 0.1029876 -0.08584144 0.010766401
000240 36 84 65 3d 72 fc 0a 3e 77 1e 8a bc 7e 02 4c 3e
       0.05603429 0.13572863 -0.01686023 0.19922826
000250 89 a2 ff bd 37 aa d3 3d 20 97 00 bd f3 c9 e7 3d
       -0.12482173 0.103352 -0.031394124 0.11317816
000260 f6 e8 12 3e 5a ca 49 3e 41 ac 80 3c 72 f9 3c 3d
       0.1434668 0.19706097 0.015707137 0.046136327
000270 8e 66 f4 3d 84 43 e3 3d f3 64 dc 3d 10 92 23 3e
       0.11933623 0.11096862 0.10761442 0.15973687
